…
I1102 14:14:15.487892 21547 net.cpp:323] The NetState phase (0) differed from the phase (1) specified by a rule in layer loss3/top-5
I1102 14:14:15.488479 21547 net.cpp:52] Initializing net from parameters:
state {
phase: TRAIN
}
layer {
name: "train-data"
type: "Data"
top: "data"
top: "label"
include {
phase: TRAIN
}
transform_param {
mirror: true
crop_size: 64
mean_file: "/home/y-hara/digits/jobs/20161102-124950-c5ff/mean.binaryproto"
}
data_param {
source: "/home/y-hara/digits/jobs/20161102-124950-c5ff/train_db"
batch_size: 32
backend: LMDB
}
}
layer {
name: "conv1/7x7_s2"
type: "Convolution"
bottom: "data"
top: "conv1/7x7_s2"
param {
lr_mult: 1
decay_mult: 1
}
param {
lr_mult: 2
decay_mult: 0
}
convolution_param {
num_output: 64
pad: 3
kernel_size: 7
stride: 2
weight_filler {
type: "xavier"
std: 0.1
}
bias_filler {
type: "constant"
value: 0.2
}
}
}
layer {
name: "conv1/relu_7x7"
type: "ReLU"
bottom: "conv1/7x7_s2"
top: "conv1/7x7_s2"
}
layer {
name: "pool1/3x3_s2"
type: "Pooling"
bottom: "conv1/7x7_s2"
top: "pool1/3x3_s2"
pooling_param {
pool: MAX
kernel_size: 3
stride: 2
}
}
layer {
name: "pool1/norm1"
type: "LRN"
bottom: "pool1/3x3_s2"
top: "pool1/norm1"
lrn_param {
local_size: 5
alpha: 0.0001
beta: 0.75
}
}
layer {
name: "conv2/3x3_reduce"
type: "Convolution"
bottom: "pool1/norm1"
top: "conv2/3x3_reduce"
param {
lr_mult: 1
decay_mult: 1
}
param {
lr_mult: 2
decay_mult: 0
}
convolution_param {
num_output: 64
kernel_size: 1
weight_filler {
type: "xavier"
std: 0.1
}
bias_filler {
type: "constant"
value: 0.2
}
}
}
layer {
name: "conv2/relu_3x3_reduce"
type: "ReLU"
bottom: "conv2/3x3_reduce"
top: "conv2/3x3_reduce"
}
layer {
name: "conv2/3x3"
type: "Convolution"
bottom: "conv2/3x3_reduce"
top: "conv2/3x3"
param {
lr_mult: 1
decay_mult: 1
}
param {
lr_mult: 2
decay_mult: 0
}
convolution_param {
num_output: 192
pad: 1
kernel_size: 3
weight_filler {
type: "xavier"
std: 0.03
}
bias_filler {
type: "constant"
value: 0.2
}
}
}
layer {
name: "conv2/relu_3x3"
type: "ReLU"
bottom: "conv2/3x3"
top: "conv2/3x3"
}
layer {
name: "conv2/norm2"
type: "LRN"
bottom: "conv2/3x3"
top: "conv2/norm2"
lrn_param {
local_size: 5
alpha: 0.0001
beta: 0.75
}
}
layer {
name: "pool2/3x3_s2"
type: "Pooling"
bottom: "conv2/norm2"
top: "pool2/3x3_s2"
pooling_param {
pool: MAX
kernel_size: 3
stride: 2
}
}
layer {
name: "inception_3a/1x1"
type: "Convolution"
bottom: "pool2/3x3_s2"
top: "inception_3a/1x1"
param {
lr_mult: 1
decay_mult: 1
}
param {
lr_mult: 2
decay_mult: 0
}
convolution_param {
num_output: 64
kernel_size: 1
weight_filler {
type: "xavier"
std: 0.03
}
bias_filler {
type: "constant"
value: 0.2
}
}
}
layer {
name: "inception_3a/relu_1x1"
type: "ReLU"
bottom: "inception_3a/1x1"
top: "inception_3a/1x1"
}
layer {
name: "inception_3a/3x3_reduce"
type: "Convolution"
bottom: "pool2/3x3_s2"
top: "inception_3a/3x3_reduce"
param {
lr_mult: 1
decay_mult: 1
}
param {
lr_mult: 2
decay_mult: 0
}
convolution_param {
num_output: 96
kernel_size: 1
weight_filler {
type: "xavier"
std: 0.09
}
bias_filler {
type: "constant"
value: 0.2
}
}
}
layer {
name: "inception_3a/relu_3x3_reduce"
type: "ReLU"
bottom: "inception_3a/3x3_reduce"
top: "inception_3a/3x3_reduce"
}
layer {
name: "inception_3a/3x3"
type: "Convolution"
bottom: "inception_3a/3x3_reduce"
top: "inception_3a/3x3"
param {
lr_mult: 1
decay_mult: 1
}
param {
lr_mult: 2
decay_mult: 0
}
convolution_param {
num_output: 128
pad: 1
kernel_size: 3
weight_filler {
type: "xavier"
std: 0.03
}
bias_filler {
type: "constant"
value: 0.2
}
}
}
layer {
name: "inception_3a/relu_3x3"
type: "ReLU"
bottom: "inception_3a/3x3"
top: "inception_3a/3x3"
}
layer {
name: "inception_3a/5x5_reduce"
type: "Convolution"
bottom: "pool2/3x3_s2"
top: "inception_3a/5x5_reduce"
param {
lr_mult: 1
decay_mult: 1
}
param {
lr_mult: 2
decay_mult: 0
}
convolution_param {
num_output: 16
kernel_size: 1
weight_filler {
type: "xavier"
std: 0.2
}
bias_filler {
type: "constant"
value: 0.2
}
}
}
layer {
name: "inception_3a/relu_5x5_reduce"
type: "ReLU"
bottom: "inception_3a/5x5_reduce"
top: "inception_3a/5x5_reduce"
}
layer {
name: "inception_3a/5x5"
type: "Convolution"
bottom: "inception_3a/5x5_reduce"
top: "inception_3a/5x5"
param {
lr_mult: 1
decay_mult: 1
}
param {
lr_mult: 2
decay_mult: 0
}
convolution_param {
num_output: 32
pad: 2
kernel_size: 5
weight_filler {
type: "xavier"
std: 0.03
}
bias_filler {
type: "constant"
value: 0.2
}
}
}
layer {
name: "inception_3a/relu_5x5"
type: "ReLU"
bottom: "inception_3a/5x5"
top: "inception_3a/5x5"
}
layer {
name: "inception_3a/pool"
type: "Pooling"
bottom: "pool2/3x3_s2"
top: "inception_3a/pool"
pooling_param {
pool: MAX
kernel_size: 3
stride: 1
pad: 1
}
}
layer {
name: "inception_3a/pool_proj"
type: "Convolution"
bottom: "inception_3a/pool"
top: "inception_3a/pool_proj"
param {
lr_mult: 1
decay_mult: 1
}
param {
lr_mult: 2
decay_mult: 0
}
convolution_param {
num_output: 32
kernel_size: 1
weight_filler {
type: "xavier"
std: 0.1
}
bias_filler {
type: "constant"
value: 0.2
}
}
}
layer {
name: "inception_3a/relu_pool_proj"
type: "ReLU"
bottom: "inception_3a/pool_proj"
top: "inception_3a/pool_proj"
}
layer {
name: "inception_3a/output"
type: "Concat"
bottom: "inception_3a/1x1"
bottom: "inception_3a/3x3"
bottom: "inception_3a/5x5"
bottom: "inception_3a/pool_proj"
top: "inception_3a/output"
}
layer {
name: "inception_3b/1x1"
type: "Convolution"
bottom: "inception_3a/output"
top: "inception_3b/1x1"
param {
lr_mult: 1
decay_mult: 1
}
param {
lr_mult: 2
decay_mult: 0
}
convolution_param {
num_output: 128
kernel_size: 1
weight_filler {
type: "xavier"
std: 0.03
}
bias_filler {
type: "constant"
value: 0.2
}
}
}
layer {
name: "inception_3b/relu_1x1"
type: "ReLU"
bottom: "inception_3b/1x1"
top: "inception_3b/1x1"
}
layer {
name: "inception_3b/3x3_reduce"
type: "Convolution"
bottom: "inception_3a/output"
top: "inception_3b/3x3_reduce"
param {
lr_mult: 1
decay_mult: 1
}
param {
lr_mult: 2
decay_mult: 0
}
convolution_param {
num_output: 128
kernel_size: 1
weight_filler {
type: "xavier"
std: 0.09
}
bias_filler {
type: "constant"
value: 0.2
}
}
}
layer {
name: "inception_3b/relu_3x3_reduce"
type: "ReLU"
bottom: "inception_3b/3x3_reduce"
top: "inception_3b/3x3_reduce"
}
layer {
name: "inception_3b/3x3"
type: "Convolution"
bottom: "inception_3b/3x3_reduce"
top: "inception_3b/3x3"
param {
lr_mult: 1
decay_mult: 1
}
param {
lr_mult: 2
decay_mult: 0
}
convolution_param {
num_output: 192
pad: 1
kernel_size: 3
weight_filler {
type: "xavier"
std: 0.03
}
bias_filler {
type: "constant"
value: 0.2
}
}
}
layer {
name: "inception_3b/relu_3x3"
type: "ReLU"
bottom: "inception_3b/3x3"
top: "inception_3b/3x3"
}
layer {
name: "inception_3b/5x5_reduce"
type: "Convolution"
bottom: "inception_3a/output"
top: "inception_3b/5x5_reduce"
param {
lr_mult: 1
decay_mult: 1
}
param {
lr_mult: 2
decay_mult: 0
}
convolution_param {
num_output: 32
kernel_size: 1
weight_filler {
type: "xavier"
std: 0.2
}
bias_filler {
type: "constant"
value: 0.2
}
}
}
layer {
name: "inception_3b/relu_5x5_reduce"
type: "ReLU"
bottom: "inception_3b/5x5_reduce"
top: "inception_3b/5x5_reduce"
}
layer {
name: "inception_3b/5x5"
type: "Convolution"
bottom: "inception_3b/5x5_reduce"
top: "inception_3b/5x5"
param {
lr_mult: 1
decay_mult: 1
}
param {
lr_mult: 2
decay_mult: 0
}
convolution_param {
num_output: 96
pad: 2
kernel_size: 5
weight_filler {
type: "xavier"
std: 0.03
}
bias_filler {
type: "constant"
value: 0.2
}
}
}
layer {
name: "inception_3b/relu_5x5"
type: "ReLU"
bottom: "inception_3b/5x5"
top: "inception_3b/5x5"
}
layer {
name: "inception_3b/pool"
type: "Pooling"
bottom: "inception_3a/output"
top: "inception_3b/pool"
pooling_param {
pool: MAX
kernel_size: 3
stride: 1
pad: 1
}
}
layer {
name: "inception_3b/pool_proj"
type: "Convolution"
bottom: "inception_3b/pool"
top: "inception_3b/pool_proj"
param {
lr_mult: 1
decay_mult: 1
}
param {
lr_mult: 2
decay_mult: 0
}
convolution_param {
num_output: 64
kernel_size: 1
weight_filler {
type: "xavier"
std: 0.1
}
bias_filler {
type: "constant"
value: 0.2
}
}
}
layer {
name: "inception_3b/relu_pool_proj"
type: "ReLU"
bottom: "inception_3b/pool_proj"
top: "inception_3b/pool_proj"
}
layer {
name: "inception_3b/output"
type: "Concat"
bottom: "inception_3b/1x1"
bottom: "inception_3b/3x3"
bottom: "inception_3b/5x5"
bottom: "inception_3b/pool_proj"
top: "inception_3b/output"
}
layer {
name: "pool3/3x3_s2"
type: "Pooling"
bottom: "inception_3b/output"
top: "pool3/3x3_s2"
pooling_param {
pool: MAX
kernel_size: 3
stride: 2
}
}
layer {
name: "inception_4a/1x1"
type: "Convolution"
bottom: "pool3/3x3_s2"
top: "inception_4a/1x1"
param {
lr_mult: 1
decay_mult: 1
}
param {
lr_mult: 2
decay_mult: 0
}
convolution_param {
num_output: 192
kernel_size: 1
weight_filler {
type: "xavier"
std: 0.03
}
bias_filler {
type: "constant"
value: 0.2
}
}
}
layer {
name: "inception_4a/relu_1x1"
type: "ReLU"
bottom: "inception_4a/1x1"
top: "inception_4a/1x1"
}
layer {
name: "inception_4a/3x3_reduce"
type: "Convolution"
bottom: "pool3/3x3_s2"
top: "inception_4a/3x3_reduce"
param {
lr_mult: 1
decay_mult: 1
}
param {
lr_mult: 2
decay_mult: 0
}
convolution_param {
num_output: 96
kernel_size: 1
weight_filler {
type: "xavier"
std: 0.09
}
bias_filler {
type: "constant"
value: 0.2
}
}
}
layer {
name: "inception_4a/relu_3x3_reduce"
type: "ReLU"
bottom: "inception_4a/3x3_reduce"
top: "inception_4a/3x3_reduce"
}
layer {
name: "inception_4a/3x3"
type: "Convolution"
bottom: "inception_4a/3x3_reduce"
top: "inception_4a/3x3"
param {
lr_mult: 1
decay_mult: 1
}
param {
lr_mult: 2
decay_mult: 0
}
convolution_param {
num_output: 208
pad: 1
kernel_size: 3
weight_filler {
type: "xavier"
std: 0.03
}
bias_filler {
type: "constant"
value: 0.2
}
}
}
layer {
name: "inception_4a/relu_3x3"
type: "ReLU"
bottom: "inception_4a/3x3"
top: "inception_4a/3x3"
}
layer {
name: "inception_4a/5x5_reduce"
type: "Convolution"
bottom: "pool3/3x3_s2"
top: "inception_4a/5x5_reduce"
param {
lr_mult: 1
decay_mult: 1
}
param {
lr_mult: 2
decay_mult: 0
}
convolution_param {
num_output: 16
kernel_size: 1
weight_filler {
type: "xavier"
std: 0.2
}
bias_filler {
type: "constant"
value: 0.2
}
}
}
layer {
name: "inception_4a/relu_5x5_reduce"
type: "ReLU"
bottom: "inception_4a/5x5_reduce"
top: "inception_4a/5x5_reduce"
}
layer {
name: "inception_4a/5x5"
type: "Convolution"
bottom: "inception_4a/5x5_reduce"
top: "inception_4a/5x5"
param {
lr_mult: 1
decay_mult: 1
}
param {
lr_mult: 2
decay_mult: 0
}
convolution_param {
num_output: 48
pad: 2
kernel_size: 5
weight_filler {
type: "xavier"
std: 0.03
}
bias_filler {
type: "constant"
value: 0.2
}
}
}
layer {
name: "inception_4a/relu_5x5"
type: "ReLU"
bottom: "inception_4a/5x5"
top: "inception_4a/5x5"
}
layer {
name: "inception_4a/pool"
type: "Pooling"
bottom: "pool3/3x3_s2"
top: "inception_4a/pool"
pooling_param {
pool: MAX
kernel_size: 3
stride: 1
pad: 1
}
}
layer {
name: "inception_4a/pool_proj"
type: "Convolution"
bottom: "inception_4a/pool"
top: "inception_4a/pool_proj"
param {
lr_mult: 1
decay_mult: 1
}
param {
lr_mult: 2
decay_mult: 0
}
convolution_param {
num_output: 64
kernel_size: 1
weight_filler {
type: "xavier"
std: 0.1
}
bias_filler {
type: "constant"
value: 0.2
}
}
}
layer {
name: "inception_4a/relu_pool_proj"
type: "ReLU"
bottom: "inception_4a/pool_proj"
top: "inception_4a/pool_proj"
}
layer {
name: "inception_4a/output"
type: "Concat"
bottom: "inception_4a/1x1"
bottom: "inception_4a/3x3"
bottom: "inception_4a/5x5"
bottom: "inception_4a/pool_proj"
top: "inception_4a/output"
}
layer {
name: "loss1/ave_pool"
type: "Pooling"
bottom: "inception_4a/output"
top: "loss1/ave_pool"
pooling_param {
pool: AVE
kernel_size: 5
stride: 3
}
}
layer {
name: "loss1/conv"
type: "Convolution"
bottom: "loss1/ave_pool"
top: "loss1/conv"
param {
lr_mult: 1
decay_mult: 1
}
param {
lr_mult: 2
decay_mult: 0
}
convolution_param {
num_output: 128
kernel_size: 1
weight_filler {
type: "xavier"
std: 0.08
}
bias_filler {
type: "constant"
value: 0.2
}
}
}
layer {
name: "loss1/relu_conv"
type: "ReLU"
bottom: "loss1/conv"
top: "loss1/conv"
}
layer {
name: "loss1/fc"
type: "InnerProduct"
bottom: "loss1/conv"
top: "loss1/fc"
param {
lr_mult: 1
decay_mult: 1
}
param {
lr_mult: 2
decay_mult: 0
}
inner_product_param {
num_output: 1024
weight_filler {
type: "xavier"
std: 0.02
}
bias_filler {
type: "constant"
value: 0.2
}
}
}
layer {
name: "loss1/relu_fc"
type: "ReLU"
bottom: "loss1/fc"
top: "loss1/fc"
}
layer {
name: "loss1/drop_fc"
type: "Dropout"
bottom: "loss1/fc"
top: "loss1/fc"
dropout_param {
dropout_ratio: 0.7
}
}
layer {
name: "loss1/classifier"
type: "InnerProduct"
bottom: "loss1/fc"
top: "loss1/classifier"
param {
lr_mult: 1
decay_mult: 1
}
param {
lr_mult: 2
decay_mult: 0
}
inner_product_param {
num_output: 10
weight_filler {
type: "xavier"
std: 0.0009765625
}
bias_filler {
type: "constant"
value: 0
}
}
}
layer {
name: "loss1/loss"
type: "SoftmaxWithLoss"
bottom: "loss1/classifier"
bottom: "label"
top: "loss1/loss"
loss_weight: 0.3
}
layer {
name: "inception_4b/1x1"
type: "Convolution"
bottom: "inception_4a/output"
top: "inception_4b/1x1"
param {
lr_mult: 1
decay_mult: 1
}
param {
lr_mult: 2
decay_mult: 0
}
convolution_param {
num_output: 160
kernel_size: 1
weight_filler {
type: "xavier"
std: 0.03
}
bias_filler {
type: "constant"
value: 0.2
}
}
}
layer {
name: "inception_4b/relu_1x1"
type: "ReLU"
bottom: "inception_4b/1x1"
top: "inception_4b/1x1"
}
layer {
name: "inception_4b/3x3_reduce"
type: "Convolution"
bottom: "inception_4a/output"
top: "inception_4b/3x3_reduce"
param {
lr_mult: 1
decay_mult: 1
}
param {
lr_mult: 2
decay_mult: 0
}
convolution_param {
num_output: 112
kernel_size: 1
weight_filler {
type: "xavier"
std: 0.09
}
bias_filler {
type: "constant"
value: 0.2
}
}
}
layer {
name: "inception_4b/relu_3x3_reduce"
type: "ReLU"
bottom: "inception_4b/3x3_reduce"
top: "inception_4b/3x3_reduce"
}
layer {
name: "inception_4b/3x3"
type: "Convolution"
bottom: "inception_4b/3x3_reduce"
top: "inception_4b/3x3"
param {
lr_mult: 1
decay_mult: 1
}
param {
lr_mult: 2
decay_mult: 0
}
convolution_param {
num_output: 224
pad: 1
kernel_size: 3
weight_filler {
type: "xavier"
std: 0.03
}
bias_filler {
type: "constant"
value: 0.2
}
}
}
layer {
name: "inception_4b/relu_3x3"
type: "ReLU"
bottom: "inception_4b/3x3"
top: "inception_4b/3x3"
}
layer {
name: "inception_4b/5x5_reduce"
type: "Convolution"
bottom: "inception_4a/output"
top: "inception_4b/5x5_reduce"
param {
lr_mult: 1
decay_mult: 1
}
param {
lr_mult: 2
decay_mult: 0
}
convolution_param {
num_output: 24
kernel_size: 1
weight_filler {
type: "xavier"
std: 0.2
}
bias_filler {
type: "constant"
value: 0.2
}
}
}
layer {
name: "inception_4b/relu_5x5_reduce"
type: "ReLU"
bottom: "inception_4b/5x5_reduce"
top: "inception_4b/5x5_reduce"
}
layer {
name: "inception_4b/5x5"
type: "Convolution"
bottom: "inception_4b/5x5_reduce"
top: "inception_4b/5x5"
param {
lr_mult: 1
decay_mult: 1
}
param {
lr_mult: 2
decay_mult: 0
}
convolution_param {
num_output: 64
pad: 2
kernel_size: 5
weight_filler {
type: "xavier"
std: 0.03
}
bias_filler {
type: "constant"
value: 0.2
}
}
}
layer {
name: "inception_4b/relu_5x5"
type: "ReLU"
bottom: "inception_4b/5x5"
top: "inception_4b/5x5"
}
layer {
name: "inception_4b/pool"
type: "Pooling"
bottom: "inception_4a/output"
top: "inception_4b/pool"
pooling_param {
pool: MAX
kernel_size: 3
stride: 1
pad: 1
}
}
layer {
name: "inception_4b/pool_proj"
type: "Convolution"
bottom: "inception_4b/pool"
top: "inception_4b/pool_proj"
param {
lr_mult: 1
decay_mult: 1
}
param {
lr_mult: 2
decay_mult: 0
}
convolution_param {
num_output: 64
kernel_size: 1
weight_filler {
type: "xavier"
std: 0.1
}
bias_filler {
type: "constant"
value: 0.2
}
}
}
layer {
name: "inception_4b/relu_pool_proj"
type: "ReLU"
bottom: "inception_4b/pool_proj"
top: "inception_4b/pool_proj"
}
layer {
name: "inception_4b/output"
type: "Concat"
bottom: "inception_4b/1x1"
bottom: "inception_4b/3x3"
bottom: "inception_4b/5x5"
bottom: "inception_4b/pool_proj"
top: "inception_4b/output"
}
layer {
name: "inception_4c/1x1"
type: "Convolution"
bottom: "inception_4b/output"
top: "inception_4c/1x1"
param {
lr_mult: 1
decay_mult: 1
}
param {
lr_mult: 2
decay_mult: 0
}
convolution_param {
num_output: 128
kernel_size: 1
weight_filler {
type: "xavier"
std: 0.03
}
bias_filler {
type: "constant"
value: 0.2
}
}
}
layer {
name: "inception_4c/relu_1x1"
type: "ReLU"
bottom: "inception_4c/1x1"
top: "inception_4c/1x1"
}
layer {
name: "inception_4c/3x3_reduce"
type: "Convolution"
bottom: "inception_4b/output"
top: "inception_4c/3x3_reduce"
param {
lr_mult: 1
decay_mult: 1
}
param {
lr_mult: 2
decay_mult: 0
}
convolution_param {
num_output: 128
kernel_size: 1
weight_filler {
type: "xavier"
std: 0.09
}
bias_filler {
type: "constant"
value: 0.2
}
}
}
layer {
name: "inception_4c/relu_3x3_reduce"
type: "ReLU"
bottom: "inception_4c/3x3_reduce"
top: "inception_4c/3x3_reduce"
}
layer {
name: "inception_4c/3x3"
type: "Convolution"
bottom: "inception_4c/3x3_reduce"
top: "inception_4c/3x3"
param {
lr_mult: 1
decay_mult: 1
}
param {
lr_mult: 2
decay_mult: 0
}
convolution_param {
num_output: 256
pad: 1
kernel_size: 3
weight_filler {
type: "xavier"
std: 0.03
}
bias_filler {
type: "constant"
value: 0.2
}
}
}
layer {
name: "inception_4c/relu_3x3"
type: "ReLU"
bottom: "inception_4c/3x3"
top: "inception_4c/3x3"
}
layer {
name: "inception_4c/5x5_reduce"
type: "Convolution"
bottom: "inception_4b/output"
top: "inception_4c/5x5_reduce"
param {
lr_mult: 1
decay_mult: 1
}
param {
lr_mult: 2
decay_mult: 0
}
convolution_param {
num_output: 24
kernel_size: 1
weight_filler {
type: "xavier"
std: 0.2
}
bias_filler {
type: "constant"
value: 0.2
}
}
}
layer {
name: "inception_4c/relu_5x5_reduce"
type: "ReLU"
bottom: "inception_4c/5x5_reduce"
top: "inception_4c/5x5_reduce"
}
layer {
name: "inception_4c/5x5"
type: "Convolution"
bottom: "inception_4c/5x5_reduce"
top: "inception_4c/5x5"
param {
lr_mult: 1
decay_mult: 1
}
param {
lr_mult: 2
decay_mult: 0
}
convolution_param {
num_output: 64
pad: 2
kernel_size: 5
weight_filler {
type: "xavier"
std: 0.03
}
bias_filler {
type: "constant"
value: 0.2
}
}
}
layer {
name: "inception_4c/relu_5x5"
type: "ReLU"
bottom: "inception_4c/5x5"
top: "inception_4c/5x5"
}
layer {
name: "inception_4c/pool"
type: "Pooling"
bottom: "inception_4b/output"
top: "inception_4c/pool"
pooling_param {
pool: MAX
kernel_size: 3
stride: 1
pad: 1
}
}
layer {
name: "inception_4c/pool_proj"
type: "Convolution"
bottom: "inception_4c/pool"
top: "inception_4c/pool_proj"
param {
lr_mult: 1
decay_mult: 1
}
param {
lr_mult: 2
decay_mult: 0
}
convolution_param {
num_output: 64
kernel_size: 1
weight_filler {
type: "xavier"
std: 0.1
}
bias_filler {
type: "constant"
value: 0.2
}
}
}
layer {
name: "inception_4c/relu_pool_proj"
type: "ReLU"
bottom: "inception_4c/pool_proj"
top: "inception_4c/pool_proj"
}
layer {
name: "inception_4c/output"
type: "Concat"
bottom: "inception_4c/1x1"
bottom: "inception_4c/3x3"
bottom: "inception_4c/5x5"
bottom: "inception_4c/pool_proj"
top: "inception_4c/output"
}
layer {
name: "inception_4d/1x1"
type: "Convolution"
bottom: "inception_4c/output"
top: "inception_4d/1x1"
param {
lr_mult: 1
decay_mult: 1
}
param {
lr_mult: 2
decay_mult: 0
}
convolution_param {
num_output: 112
kernel_size: 1
weight_filler {
type: "xavier"
std: 0.03
}
bias_filler {
type: "constant"
value: 0.2
}
}
}
layer {
name: "inception_4d/relu_1x1"
type: "ReLU"
bottom: "inception_4d/1x1"
top: "inception_4d/1x1"
}
layer {
name: "inception_4d/3x3_reduce"
type: "Convolution"
bottom: "inception_4c/output"
top: "inception_4d/3x3_reduce"
param {
lr_mult: 1
decay_mult: 1
}
param {
lr_mult: 2
decay_mult: 0
}
convolution_param {
num_output: 144
kernel_size: 1
weight_filler {
type: "xavier"
std: 0.09
}
bias_filler {
type: "constant"
value: 0.2
}
}
}
layer {
name: "inception_4d/relu_3x3_reduce"
type: "ReLU"
bottom: "inception_4d/3x3_reduce"
top: "inception_4d/3x3_reduce"
}
layer {
name: "inception_4d/3x3"
type: "Convolution"
bottom: "inception_4d/3x3_reduce"
top: "inception_4d/3x3"
param {
lr_mult: 1
decay_mult: 1
}
param {
lr_mult: 2
decay_mult: 0
}
convolution_param {
num_output: 288
pad: 1
kernel_size: 3
weight_filler {
type: "xavier"
std: 0.03
}
bias_filler {
type: "constant"
value: 0.2
}
}
}
layer {
name: "inception_4d/relu_3x3"
type: "ReLU"
bottom: "inception_4d/3x3"
top: "inception_4d/3x3"
}
layer {
name: "inception_4d/5x5_reduce"
type: "Convolution"
bottom: "inception_4c/output"
top: "inception_4d/5x5_reduce"
param {
lr_mult: 1
decay_mult: 1
}
param {
lr_mult: 2
decay_mult: 0
}
convolution_param {
num_output: 32
kernel_size: 1
weight_filler {
type: "xavier"
std: 0.2
}
bias_filler {
type: "constant"
value: 0.2
}
}
}
layer {
name: "inception_4d/relu_5x5_reduce"
type: "ReLU"
bottom: "inception_4d/5x5_reduce"
top: "inception_4d/5x5_reduce"
}
layer {
name: "inception_4d/5x5"
type: "Convolution"
bottom: "inception_4d/5x5_reduce"
top: "inception_4d/5x5"
param {
lr_mult: 1
decay_mult: 1
}
param {
lr_mult: 2
decay_mult: 0
}
convolution_param {
num_output: 64
pad: 2
kernel_size: 5
weight_filler {
type: "xavier"
std: 0.03
}
bias_filler {
type: "constant"
value: 0.2
}
}
}
layer {
name: "inception_4d/relu_5x5"
type: "ReLU"
bottom: "inception_4d/5x5"
top: "inception_4d/5x5"
}
layer {
name: "inception_4d/pool"
type: "Pooling"
bottom: "inception_4c/output"
top: "inception_4d/pool"
pooling_param {
pool: MAX
kernel_size: 3
stride: 1
pad: 1
}
}
layer {
name: "inception_4d/pool_proj"
type: "Convolution"
bottom: "inception_4d/pool"
top: "inception_4d/pool_proj"
param {
lr_mult: 1
decay_mult: 1
}
param {
lr_mult: 2
decay_mult: 0
}
convolution_param {
num_output: 64
kernel_size: 1
weight_filler {
type: "xavier"
std: 0.1
}
bias_filler {
type: "constant"
value: 0.2
}
}
}
layer {
name: "inception_4d/relu_pool_proj"
type: "ReLU"
bottom: "inception_4d/pool_proj"
top: "inception_4d/pool_proj"
}
layer {
name: "inception_4d/output"
type: "Concat"
bottom: "inception_4d/1x1"
bottom: "inception_4d/3x3"
bottom: "inception_4d/5x5"
bottom: "inception_4d/pool_proj"
top: "inception_4d/output"
}
layer {
name: "loss2/ave_pool"
type: "Pooling"
bottom: "inception_4d/output"
top: "loss2/ave_pool"
pooling_param {
pool: AVE
kernel_size: 5
stride: 3
}
}
layer {
name: "loss2/conv"
type: "Convolution"
bottom: "loss2/ave_pool"
top: "loss2/conv"
param {
lr_mult: 1
decay_mult: 1
}
param {
lr_mult: 2
decay_mult: 0
}
convolution_param {
num_output: 128
kernel_size: 1
weight_filler {
type: "xavier"
std: 0.08
}
bias_filler {
type: "constant"
value: 0.2
}
}
}
layer {
name: "loss2/relu_conv"
type: "ReLU"
bottom: "loss2/conv"
top: "loss2/conv"
}
layer {
name: "loss2/fc"
type: "InnerProduct"
bottom: "loss2/conv"
top: "loss2/fc"
param {
lr_mult: 1
decay_mult: 1
}
param {
lr_mult: 2
decay_mult: 0
}
inner_product_param {
num_output: 1024
weight_filler {
type: "xavier"
std: 0.02
}
bias_filler {
type: "constant"
value: 0.2
}
}
}
layer {
name: "loss2/relu_fc"
type: "ReLU"
bottom: "loss2/fc"
top: "loss2/fc"
}
layer {
name: "loss2/drop_fc"
type: "Dropout"
bottom: "loss2/fc"
top: "loss2/fc"
dropout_param {
dropout_ratio: 0.7
}
}
layer {
name: "loss2/classifier"
type: "InnerProduct"
bottom: "loss2/fc"
top: "loss2/classifier"
param {
lr_mult: 1
decay_mult: 1
}
param {
lr_mult: 2
decay_mult: 0
}
inner_product_param {
num_output: 10
weight_filler {
type: "xavier"
std: 0.0009765625
}
bias_filler {
type: "constant"
value: 0
}
}
}
layer {
name: "loss2/loss"
type: "SoftmaxWithLoss"
bottom: "loss2/classifier"
bottom: "label"
top: "loss2/loss"
loss_weight: 0.3
}
layer {
name: "inception_4e/1x1"
type: "Convolution"
bottom: "inception_4d/output"
top: "inception_4e/1x1"
param {
lr_mult: 1
decay_mult: 1
}
param {
lr_mult: 2
decay_mult: 0
}
convolution_param {
num_output: 256
kernel_size: 1
weight_filler {
type: "xavier"
std: 0.03
}
bias_filler {
type: "constant"
value: 0.2
}
}
}
layer {
name: "inception_4e/relu_1x1"
type: "ReLU"
bottom: "inception_4e/1x1"
top: "inception_4e/1x1"
}
layer {
name: "inception_4e/3x3_reduce"
type: "Convolution"
bottom: "inception_4d/output"
top: "inception_4e/3x3_reduce"
param {
lr_mult: 1
decay_mult: 1
}
param {
lr_mult: 2
decay_mult: 0
}
convolution_param {
num_output: 160
kernel_size: 1
weight_filler {
type: "xavier"
std: 0.09
}
bias_filler {
type: "constant"
value: 0.2
}
}
}
layer {
name: "inception_4e/relu_3x3_reduce"
type: "ReLU"
bottom: "inception_4e/3x3_reduce"
top: "inception_4e/3x3_reduce"
}
layer {
name: "inception_4e/3x3"
type: "Convolution"
bottom: "inception_4e/3x3_reduce"
top: "inception_4e/3x3"
param {
lr_mult: 1
decay_mult: 1
}
param {
lr_mult: 2
decay_mult: 0
}
convolution_param {
num_output: 320
pad: 1
kernel_size: 3
weight_filler {
type: "xavier"
std: 0.03
}
bias_filler {
type: "constant"
value: 0.2
}
}
}
layer {
name: "inception_4e/relu_3x3"
type: "ReLU"
bottom: "inception_4e/3x3"
top: "inception_4e/3x3"
}
layer {
name: "inception_4e/5x5_reduce"
type: "Convolution"
bottom: "inception_4d/output"
top: "inception_4e/5x5_reduce"
param {
lr_mult: 1
decay_mult: 1
}
param {
lr_mult: 2
decay_mult: 0
}
convolution_param {
num_output: 32
kernel_size: 1
weight_filler {
type: "xavier"
std: 0.2
}
bias_filler {
type: "constant"
value: 0.2
}
}
}
layer {
name: "incep
I1102 14:14:15.488960 21547 layer_factory.hpp:77] Creating layer train-data
I1102 14:14:15.489830 21547 net.cpp:94] Creating Layer train-data
I1102 14:14:15.489845 21547 net.cpp:409] train-data -> data
I1102 14:14:15.489868 21547 net.cpp:409] train-data -> label
I1102 14:14:15.489883 21547 data_transformer.cpp:25] Loading mean file from: /home/y-hara/digits/jobs/20161102-124950-c5ff/mean.binaryproto
I1102 14:14:15.492444 21553 db_lmdb.cpp:35] Opened lmdb /home/y-hara/digits/jobs/20161102-124950-c5ff/train_db
I1102 14:14:15.492792 21547 data_layer.cpp:76] output data size: 32,3,64,64
I1102 14:14:15.496309 21547 net.cpp:144] Setting up train-data
I1102 14:14:15.496327 21547 net.cpp:151] Top shape: 32 3 64 64 (393216)
I1102 14:14:15.496331 21547 net.cpp:151] Top shape: 32 (32)
I1102 14:14:15.496335 21547 net.cpp:159] Memory required for data: 1572992
I1102 14:14:15.496341 21547 layer_factory.hpp:77] Creating layer label_train-data_1_split
I1102 14:14:15.496366 21547 net.cpp:94] Creating Layer label_train-data_1_split
I1102 14:14:15.496384 21547 net.cpp:435] label_train-data_1_split <- label
I1102 14:14:15.496395 21547 net.cpp:409] label_train-data_1_split -> label_train-data_1_split_0
I1102 14:14:15.496402 21547 net.cpp:409] label_train-data_1_split -> label_train-data_1_split_1
I1102 14:14:15.496407 21547 net.cpp:409] label_train-data_1_split -> label_train-data_1_split_2
I1102 14:14:15.496496 21547 net.cpp:144] Setting up label_train-data_1_split
I1102 14:14:15.496503 21547 net.cpp:151] Top shape: 32 (32)
I1102 14:14:15.496506 21547 net.cpp:151] Top shape: 32 (32)
I1102 14:14:15.496510 21547 net.cpp:151] Top shape: 32 (32)
I1102 14:14:15.496512 21547 net.cpp:159] Memory required for data: 1573376
I1102 14:14:15.496515 21547 layer_factory.hpp:77] Creating layer conv1/7x7_s2
I1102 14:14:15.496531 21547 net.cpp:94] Creating Layer conv1/7x7_s2
I1102 14:14:15.496533 21547 net.cpp:435] conv1/7x7_s2 <- data
I1102 14:14:15.496538 21547 net.cpp:409] conv1/7x7_s2 -> conv1/7x7_s2
I1102 14:14:15.526511 21547 net.cpp:144] Setting up conv1/7x7_s2
I1102 14:14:15.526546 21547 net.cpp:151] Top shape: 32 64 32 32 (2097152)
I1102 14:14:15.526556 21547 net.cpp:159] Memory required for data: 9961984
I1102 14:14:15.526592 21547 layer_factory.hpp:77] Creating layer conv1/relu_7x7
I1102 14:14:15.526612 21547 net.cpp:94] Creating Layer conv1/relu_7x7
I1102 14:14:15.526623 21547 net.cpp:435] conv1/relu_7x7 <- conv1/7x7_s2
I1102 14:14:15.526635 21547 net.cpp:396] conv1/relu_7x7 -> conv1/7x7_s2 (in-place)
I1102 14:14:15.526667 21547 net.cpp:144] Setting up conv1/relu_7x7
I1102 14:14:15.526680 21547 net.cpp:151] Top shape: 32 64 32 32 (2097152)
I1102 14:14:15.526690 21547 net.cpp:159] Memory required for data: 18350592
I1102 14:14:15.526698 21547 layer_factory.hpp:77] Creating layer pool1/3x3_s2
I1102 14:14:15.526718 21547 net.cpp:94] Creating Layer pool1/3x3_s2
I1102 14:14:15.526728 21547 net.cpp:435] pool1/3x3_s2 <- conv1/7x7_s2
I1102 14:14:15.526741 21547 net.cpp:409] pool1/3x3_s2 -> pool1/3x3_s2
I1102 14:14:15.526935 21547 net.cpp:144] Setting up pool1/3x3_s2
I1102 14:14:15.526969 21547 net.cpp:151] Top shape: 32 64 16 16 (524288)
I1102 14:14:15.527014 21547 net.cpp:159] Memory required for data: 20447744
I1102 14:14:15.527030 21547 layer_factory.hpp:77] Creating layer pool1/norm1
I1102 14:14:15.527063 21547 net.cpp:94] Creating Layer pool1/norm1
I1102 14:14:15.527081 21547 net.cpp:435] pool1/norm1 <- pool1/3x3_s2
I1102 14:14:15.527101 21547 net.cpp:409] pool1/norm1 -> pool1/norm1
I1102 14:14:15.527221 21547 net.cpp:144] Setting up pool1/norm1
I1102 14:14:15.527245 21547 net.cpp:151] Top shape: 32 64 16 16 (524288)
I1102 14:14:15.527259 21547 net.cpp:159] Memory required for data: 22544896
I1102 14:14:15.527274 21547 layer_factory.hpp:77] Creating layer conv2/3x3_reduce
I1102 14:14:15.527304 21547 net.cpp:94] Creating Layer conv2/3x3_reduce
I1102 14:14:15.527319 21547 net.cpp:435] conv2/3x3_reduce <- pool1/norm1
I1102 14:14:15.527341 21547 net.cpp:409] conv2/3x3_reduce -> conv2/3x3_reduce
I1102 14:14:15.535534 21547 net.cpp:144] Setting up conv2/3x3_reduce
I1102 14:14:15.535553 21547 net.cpp:151] Top shape: 32 64 16 16 (524288)
I1102 14:14:15.535558 21547 net.cpp:159] Memory required for data: 24642048
I1102 14:14:15.535570 21547 layer_factory.hpp:77] Creating layer conv2/relu_3x3_reduce
I1102 14:14:15.535580 21547 net.cpp:94] Creating Layer conv2/relu_3x3_reduce
I1102 14:14:15.535586 21547 net.cpp:435] conv2/relu_3x3_reduce <- conv2/3x3_reduce
I1102 14:14:15.535593 21547 net.cpp:396] conv2/relu_3x3_reduce -> conv2/3x3_reduce (in-place)
I1102 14:14:15.535604 21547 net.cpp:144] Setting up conv2/relu_3x3_reduce
I1102 14:14:15.535611 21547 net.cpp:151] Top shape: 32 64 16 16 (524288)
I1102 14:14:15.535615 21547 net.cpp:159] Memory required for data: 26739200
I1102 14:14:15.535620 21547 layer_factory.hpp:77] Creating layer conv2/3x3
I1102 14:14:15.535634 21547 net.cpp:94] Creating Layer conv2/3x3
I1102 14:14:15.535639 21547 net.cpp:435] conv2/3x3 <- conv2/3x3_reduce
I1102 14:14:15.535646 21547 net.cpp:409] conv2/3x3 -> conv2/3x3
I1102 14:14:15.544771 21547 net.cpp:144] Setting up conv2/3x3
I1102 14:14:15.544790 21547 net.cpp:151] Top shape: 32 192 16 16 (1572864)
I1102 14:14:15.544796 21547 net.cpp:159] Memory required for data: 33030656
I1102 14:14:15.544808 21547 layer_factory.hpp:77] Creating layer conv2/relu_3x3
I1102 14:14:15.544818 21547 net.cpp:94] Creating Layer conv2/relu_3x3
I1102 14:14:15.544824 21547 net.cpp:435] conv2/relu_3x3 <- conv2/3x3
I1102 14:14:15.544831 21547 net.cpp:396] conv2/relu_3x3 -> conv2/3x3 (in-place)
I1102 14:14:15.544842 21547 net.cpp:144] Setting up conv2/relu_3x3
I1102 14:14:15.544849 21547 net.cpp:151] Top shape: 32 192 16 16 (1572864)
I1102 14:14:15.544853 21547 net.cpp:159] Memory required for data: 39322112
I1102 14:14:15.544858 21547 layer_factory.hpp:77] Creating layer conv2/norm2
I1102 14:14:15.544867 21547 net.cpp:94] Creating Layer conv2/norm2
I1102 14:14:15.544872 21547 net.cpp:435] conv2/norm2 <- conv2/3x3
I1102 14:14:15.544878 21547 net.cpp:409] conv2/norm2 -> conv2/norm2
I1102 14:14:15.544925 21547 net.cpp:144] Setting up conv2/norm2
I1102 14:14:15.544934 21547 net.cpp:151] Top shape: 32 192 16 16 (1572864)
I1102 14:14:15.544939 21547 net.cpp:159] Memory required for data: 45613568
I1102 14:14:15.544945 21547 layer_factory.hpp:77] Creating layer pool2/3x3_s2
I1102 14:14:15.544951 21547 net.cpp:94] Creating Layer pool2/3x3_s2
I1102 14:14:15.544957 21547 net.cpp:435] pool2/3x3_s2 <- conv2/norm2
I1102 14:14:15.544965 21547 net.cpp:409] pool2/3x3_s2 -> pool2/3x3_s2
I1102 14:14:15.545001 21547 net.cpp:144] Setting up pool2/3x3_s2
I1102 14:14:15.545009 21547 net.cpp:151] Top shape: 32 192 8 8 (393216)
I1102 14:14:15.545014 21547 net.cpp:159] Memory required for data: 47186432
I1102 14:14:15.545019 21547 layer_factory.hpp:77] Creating layer pool2/3x3_s2_pool2/3x3_s2_0_split
I1102 14:14:15.545027 21547 net.cpp:94] Creating Layer pool2/3x3_s2_pool2/3x3_s2_0_split
I1102 14:14:15.545032 21547 net.cpp:435] pool2/3x3_s2_pool2/3x3_s2_0_split <- pool2/3x3_s2
I1102 14:14:15.545038 21547 net.cpp:409] pool2/3x3_s2_pool2/3x3_s2_0_split -> pool2/3x3_s2_pool2/3x3_s2_0_split_0
I1102 14:14:15.545047 21547 net.cpp:409] pool2/3x3_s2_pool2/3x3_s2_0_split -> pool2/3x3_s2_pool2/3x3_s2_0_split_1
I1102 14:14:15.545055 21547 net.cpp:409] pool2/3x3_s2_pool2/3x3_s2_0_split -> pool2/3x3_s2_pool2/3x3_s2_0_split_2
I1102 14:14:15.545063 21547 net.cpp:409] pool2/3x3_s2_pool2/3x3_s2_0_split -> pool2/3x3_s2_pool2/3x3_s2_0_split_3
I1102 14:14:15.545137 21547 net.cpp:144] Setting up pool2/3x3_s2_pool2/3x3_s2_0_split
I1102 14:14:15.545147 21547 net.cpp:151] Top shape: 32 192 8 8 (393216)
I1102 14:14:15.545155 21547 net.cpp:151] Top shape: 32 192 8 8 (393216)
I1102 14:14:15.545159 21547 net.cpp:151] Top shape: 32 192 8 8 (393216)
I1102 14:14:15.545166 21547 net.cpp:151] Top shape: 32 192 8 8 (393216)
I1102 14:14:15.545171 21547 net.cpp:159] Memory required for data: 53477888
I1102 14:14:15.545176 21547 layer_factory.hpp:77] Creating layer inception_3a/1x1
I1102 14:14:15.545187 21547 net.cpp:94] Creating Layer inception_3a/1x1
I1102 14:14:15.545192 21547 net.cpp:435] inception_3a/1x1 <- pool2/3x3_s2_pool2/3x3_s2_0_split_0
I1102 14:14:15.545200 21547 net.cpp:409] inception_3a/1x1 -> inception_3a/1x1
I1102 14:14:15.548053 21547 net.cpp:144] Setting up inception_3a/1x1
I1102 14:14:15.548079 21547 net.cpp:151] Top shape: 32 64 8 8 (131072)
I1102 14:14:15.548087 21547 net.cpp:159] Memory required for data: 54002176
I1102 14:14:15.548101 21547 layer_factory.hpp:77] Creating layer inception_3a/relu_1x1
I1102 14:14:15.548112 21547 net.cpp:94] Creating Layer inception_3a/relu_1x1
I1102 14:14:15.548121 21547 net.cpp:435] inception_3a/relu_1x1 <- inception_3a/1x1
I1102 14:14:15.548132 21547 net.cpp:396] inception_3a/relu_1x1 -> inception_3a/1x1 (in-place)
I1102 14:14:15.548148 21547 net.cpp:144] Setting up inception_3a/relu_1x1
I1102 14:14:15.548158 21547 net.cpp:151] Top shape: 32 64 8 8 (131072)
I1102 14:14:15.548166 21547 net.cpp:159] Memory required for data: 54526464
I1102 14:14:15.548172 21547 layer_factory.hpp:77] Creating layer inception_3a/3x3_reduce
I1102 14:14:15.548208 21547 net.cpp:94] Creating Layer inception_3a/3x3_reduce
I1102 14:14:15.548218 21547 net.cpp:435] inception_3a/3x3_reduce <- pool2/3x3_s2_pool2/3x3_s2_0_split_1
I1102 14:14:15.548229 21547 net.cpp:409] inception_3a/3x3_reduce -> inception_3a/3x3_reduce
I1102 14:14:15.553426 21547 net.cpp:144] Setting up inception_3a/3x3_reduce
I1102 14:14:15.553449 21547 net.cpp:151] Top shape: 32 96 8 8 (196608)
I1102 14:14:15.553458 21547 net.cpp:159] Memory required for data: 55312896
I1102 14:14:15.553478 21547 layer_factory.hpp:77] Creating layer inception_3a/relu_3x3_reduce
I1102 14:14:15.553493 21547 net.cpp:94] Creating Layer inception_3a/relu_3x3_reduce
I1102 14:14:15.553500 21547 net.cpp:435] inception_3a/relu_3x3_reduce <- inception_3a/3x3_reduce
I1102 14:14:15.553511 21547 net.cpp:396] inception_3a/relu_3x3_reduce -> inception_3a/3x3_reduce (in-place)
I1102 14:14:15.553527 21547 net.cpp:144] Setting up inception_3a/relu_3x3_reduce
I1102 14:14:15.553539 21547 net.cpp:151] Top shape: 32 96 8 8 (196608)
I1102 14:14:15.553546 21547 net.cpp:159] Memory required for data: 56099328
I1102 14:14:15.553553 21547 layer_factory.hpp:77] Creating layer inception_3a/3x3
I1102 14:14:15.553568 21547 net.cpp:94] Creating Layer inception_3a/3x3
I1102 14:14:15.553576 21547 net.cpp:435] inception_3a/3x3 <- inception_3a/3x3_reduce
I1102 14:14:15.553587 21547 net.cpp:409] inception_3a/3x3 -> inception_3a/3x3
I1102 14:14:15.559142 21547 net.cpp:144] Setting up inception_3a/3x3
I1102 14:14:15.559157 21547 net.cpp:151] Top shape: 32 128 8 8 (262144)
I1102 14:14:15.559162 21547 net.cpp:159] Memory required for data: 57147904
I1102 14:14:15.559170 21547 layer_factory.hpp:77] Creating layer inception_3a/relu_3x3
I1102 14:14:15.559178 21547 net.cpp:94] Creating Layer inception_3a/relu_3x3
I1102 14:14:15.559183 21547 net.cpp:435] inception_3a/relu_3x3 <- inception_3a/3x3
I1102 14:14:15.559190 21547 net.cpp:396] inception_3a/relu_3x3 -> inception_3a/3x3 (in-place)
I1102 14:14:15.559198 21547 net.cpp:144] Setting up inception_3a/relu_3x3
I1102 14:14:15.559204 21547 net.cpp:151] Top shape: 32 128 8 8 (262144)
I1102 14:14:15.559208 21547 net.cpp:159] Memory required for data: 58196480
I1102 14:14:15.559213 21547 layer_factory.hpp:77] Creating layer inception_3a/5x5_reduce
I1102 14:14:15.559223 21547 net.cpp:94] Creating Layer inception_3a/5x5_reduce
I1102 14:14:15.559228 21547 net.cpp:435] inception_3a/5x5_reduce <- pool2/3x3_s2_pool2/3x3_s2_0_split_2
I1102 14:14:15.559234 21547 net.cpp:409] inception_3a/5x5_reduce -> inception_3a/5x5_reduce
I1102 14:14:15.561288 21547 net.cpp:144] Setting up inception_3a/5x5_reduce
I1102 14:14:15.561303 21547 net.cpp:151] Top shape: 32 16 8 8 (32768)
I1102 14:14:15.561308 21547 net.cpp:159] Memory required for data: 58327552
I1102 14:14:15.561316 21547 layer_factory.hpp:77] Creating layer inception_3a/relu_5x5_reduce
I1102 14:14:15.561324 21547 net.cpp:94] Creating Layer inception_3a/relu_5x5_reduce
I1102 14:14:15.561329 21547 net.cpp:435] inception_3a/relu_5x5_reduce <- inception_3a/5x5_reduce
I1102 14:14:15.561336 21547 net.cpp:396] inception_3a/relu_5x5_reduce -> inception_3a/5x5_reduce (in-place)
I1102 14:14:15.561345 21547 net.cpp:144] Setting up inception_3a/relu_5x5_reduce
I1102 14:14:15.561352 21547 net.cpp:151] Top shape: 32 16 8 8 (32768)
I1102 14:14:15.561355 21547 net.cpp:159] Memory required for data: 58458624
I1102 14:14:15.561359 21547 layer_factory.hpp:77] Creating layer inception_3a/5x5
I1102 14:14:15.561369 21547 net.cpp:94] Creating Layer inception_3a/5x5
I1102 14:14:15.561374 21547 net.cpp:435] inception_3a/5x5 <- inception_3a/5x5_reduce
I1102 14:14:15.561381 21547 net.cpp:409] inception_3a/5x5 -> inception_3a/5x5
I1102 14:14:15.563451 21547 net.cpp:144] Setting up inception_3a/5x5
I1102 14:14:15.563464 21547 net.cpp:151] Top shape: 32 32 8 8 (65536)
I1102 14:14:15.563469 21547 net.cpp:159] Memory required for data: 58720768
I1102 14:14:15.563477 21547 layer_factory.hpp:77] Creating layer inception_3a/relu_5x5
I1102 14:14:15.563484 21547 net.cpp:94] Creating Layer inception_3a/relu_5x5
I1102 14:14:15.563501 21547 net.cpp:435] inception_3a/relu_5x5 <- inception_3a/5x5
I1102 14:14:15.563509 21547 net.cpp:396] inception_3a/relu_5x5 -> inception_3a/5x5 (in-place)
I1102 14:14:15.563519 21547 net.cpp:144] Setting up inception_3a/relu_5x5
I1102 14:14:15.563524 21547 net.cpp:151] Top shape: 32 32 8 8 (65536)
I1102 14:14:15.563529 21547 net.cpp:159] Memory required for data: 58982912
I1102 14:14:15.563534 21547 layer_factory.hpp:77] Creating layer inception_3a/pool
I1102 14:14:15.563539 21547 net.cpp:94] Creating Layer inception_3a/pool
I1102 14:14:15.563544 21547 net.cpp:435] inception_3a/pool <- pool2/3x3_s2_pool2/3x3_s2_0_split_3
I1102 14:14:15.563550 21547 net.cpp:409] inception_3a/pool -> inception_3a/pool
I1102 14:14:15.563593 21547 net.cpp:144] Setting up inception_3a/pool
I1102 14:14:15.563601 21547 net.cpp:151] Top shape: 32 192 8 8 (393216)
I1102 14:14:15.563604 21547 net.cpp:159] Memory required for data: 60555776
I1102 14:14:15.563609 21547 layer_factory.hpp:77] Creating layer inception_3a/pool_proj
I1102 14:14:15.563619 21547 net.cpp:94] Creating Layer inception_3a/pool_proj
I1102 14:14:15.563623 21547 net.cpp:435] inception_3a/pool_proj <- inception_3a/pool
I1102 14:14:15.563630 21547 net.cpp:409] inception_3a/pool_proj -> inception_3a/pool_proj
I1102 14:14:15.565781 21547 net.cpp:144] Setting up inception_3a/pool_proj
I1102 14:14:15.565798 21547 net.cpp:151] Top shape: 32 32 8 8 (65536)
I1102 14:14:15.565803 21547 net.cpp:159] Memory required for data: 60817920
I1102 14:14:15.565814 21547 layer_factory.hpp:77] Creating layer inception_3a/relu_pool_proj
I1102 14:14:15.565821 21547 net.cpp:94] Creating Layer inception_3a/relu_pool_proj
I1102 14:14:15.565826 21547 net.cpp:435] inception_3a/relu_pool_proj <- inception_3a/pool_proj
I1102 14:14:15.565834 21547 net.cpp:396] inception_3a/relu_pool_proj -> inception_3a/pool_proj (in-place)
I1102 14:14:15.565842 21547 net.cpp:144] Setting up inception_3a/relu_pool_proj
I1102 14:14:15.565848 21547 net.cpp:151] Top shape: 32 32 8 8 (65536)
I1102 14:14:15.565852 21547 net.cpp:159] Memory required for data: 61080064
I1102 14:14:15.565856 21547 layer_factory.hpp:77] Creating layer inception_3a/output
I1102 14:14:15.565866 21547 net.cpp:94] Creating Layer inception_3a/output
I1102 14:14:15.565871 21547 net.cpp:435] inception_3a/output <- inception_3a/1x1
I1102 14:14:15.565876 21547 net.cpp:435] inception_3a/output <- inception_3a/3x3
I1102 14:14:15.565881 21547 net.cpp:435] inception_3a/output <- inception_3a/5x5
I1102 14:14:15.565886 21547 net.cpp:435] inception_3a/output <- inception_3a/pool_proj
I1102 14:14:15.565891 21547 net.cpp:409] inception_3a/output -> inception_3a/output
I1102 14:14:15.565924 21547 net.cpp:144] Setting up inception_3a/output
I1102 14:14:15.565932 21547 net.cpp:151] Top shape: 32 256 8 8 (524288)
I1102 14:14:15.565937 21547 net.cpp:159] Memory required for data: 63177216
I1102 14:14:15.565940 21547 layer_factory.hpp:77] Creating layer inception_3a/output_inception_3a/output_0_split
I1102 14:14:15.565946 21547 net.cpp:94] Creating Layer inception_3a/output_inception_3a/output_0_split
I1102 14:14:15.565951 21547 net.cpp:435] inception_3a/output_inception_3a/output_0_split <- inception_3a/output
I1102 14:14:15.565958 21547 net.cpp:409] inception_3a/output_inception_3a/output_0_split -> inception_3a/output_inception_3a/output_0_split_0
I1102 14:14:15.565964 21547 net.cpp:409] inception_3a/output_inception_3a/output_0_split -> inception_3a/output_inception_3a/output_0_split_1
I1102 14:14:15.565971 21547 net.cpp:409] inception_3a/output_inception_3a/output_0_split -> inception_3a/output_inception_3a/output_0_split_2
I1102 14:14:15.565979 21547 net.cpp:409] inception_3a/output_inception_3a/output_0_split -> inception_3a/output_inception_3a/output_0_split_3
I1102 14:14:15.566032 21547 net.cpp:144] Setting up inception_3a/output_inception_3a/output_0_split
I1102 14:14:15.566040 21547 net.cpp:151] Top shape: 32 256 8 8 (524288)
I1102 14:14:15.566045 21547 net.cpp:151] Top shape: 32 256 8 8 (524288)
I1102 14:14:15.566061 21547 net.cpp:151] Top shape: 32 256 8 8 (524288)
I1102 14:14:15.566066 21547 net.cpp:151] Top shape: 32 256 8 8 (524288)
I1102 14:14:15.566069 21547 net.cpp:159] Memory required for data: 71565824
I1102 14:14:15.566074 21547 layer_factory.hpp:77] Creating layer inception_3b/1x1
I1102 14:14:15.566083 21547 net.cpp:94] Creating Layer inception_3b/1x1
I1102 14:14:15.566088 21547 net.cpp:435] inception_3b/1x1 <- inception_3a/output_inception_3a/output_0_split_0
I1102 14:14:15.566097 21547 net.cpp:409] inception_3b/1x1 -> inception_3b/1x1
I1102 14:14:15.569139 21547 net.cpp:144] Setting up inception_3b/1x1
I1102 14:14:15.569154 21547 net.cpp:151] Top shape: 32 128 8 8 (262144)
I1102 14:14:15.569159 21547 net.cpp:159] Memory required for data: 72614400
I1102 14:14:15.569167 21547 layer_factory.hpp:77] Creating layer inception_3b/relu_1x1
I1102 14:14:15.569175 21547 net.cpp:94] Creating Layer inception_3b/relu_1x1
I1102 14:14:15.569180 21547 net.cpp:435] inception_3b/relu_1x1 <- inception_3b/1x1
I1102 14:14:15.569187 21547 net.cpp:396] inception_3b/relu_1x1 -> inception_3b/1x1 (in-place)
I1102 14:14:15.569196 21547 net.cpp:144] Setting up inception_3b/relu_1x1
I1102 14:14:15.569202 21547 net.cpp:151] Top shape: 32 128 8 8 (262144)
I1102 14:14:15.569206 21547 net.cpp:159] Memory required for data: 73662976
I1102 14:14:15.569211 21547 layer_factory.hpp:77] Creating layer inception_3b/3x3_reduce
I1102 14:14:15.569221 21547 net.cpp:94] Creating Layer inception_3b/3x3_reduce
I1102 14:14:15.569226 21547 net.cpp:435] inception_3b/3x3_reduce <- inception_3a/output_inception_3a/output_0_split_1
I1102 14:14:15.569232 21547 net.cpp:409] inception_3b/3x3_reduce -> inception_3b/3x3_reduce
I1102 14:14:15.572723 21547 net.cpp:144] Setting up inception_3b/3x3_reduce
I1102 14:14:15.572742 21547 net.cpp:151] Top shape: 32 128 8 8 (262144)
I1102 14:14:15.572749 21547 net.cpp:159] Memory required for data: 74711552
I1102 14:14:15.572760 21547 layer_factory.hpp:77] Creating layer inception_3b/relu_3x3_reduce
I1102 14:14:15.572770 21547 net.cpp:94] Creating Layer inception_3b/relu_3x3_reduce
I1102 14:14:15.572777 21547 net.cpp:435] inception_3b/relu_3x3_reduce <- inception_3b/3x3_reduce
I1102 14:14:15.572787 21547 net.cpp:396] inception_3b/relu_3x3_reduce -> inception_3b/3x3_reduce (in-place)
I1102 14:14:15.572799 21547 net.cpp:144] Setting up inception_3b/relu_3x3_reduce
I1102 14:14:15.572808 21547 net.cpp:151] Top shape: 32 128 8 8 (262144)
I1102 14:14:15.572813 21547 net.cpp:159] Memory required for data: 75760128
I1102 14:14:15.572818 21547 layer_factory.hpp:77] Creating layer inception_3b/3x3
I1102 14:14:15.572835 21547 net.cpp:94] Creating Layer inception_3b/3x3
I1102 14:14:15.572841 21547 net.cpp:435] inception_3b/3x3 <- inception_3b/3x3_reduce
I1102 14:14:15.572851 21547 net.cpp:409] inception_3b/3x3 -> inception_3b/3x3
I1102 14:14:15.581876 21547 net.cpp:144] Setting up inception_3b/3x3
I1102 14:14:15.581894 21547 net.cpp:151] Top shape: 32 192 8 8 (393216)
I1102 14:14:15.581900 21547 net.cpp:159] Memory required for data: 77332992
I1102 14:14:15.581910 21547 layer_factory.hpp:77] Creating layer inception_3b/relu_3x3
I1102 14:14:15.581919 21547 net.cpp:94] Creating Layer inception_3b/relu_3x3
I1102 14:14:15.581925 21547 net.cpp:435] inception_3b/relu_3x3 <- inception_3b/3x3
I1102 14:14:15.581933 21547 net.cpp:396] inception_3b/relu_3x3 -> inception_3b/3x3 (in-place)
I1102 14:14:15.581944 21547 net.cpp:144] Setting up inception_3b/relu_3x3
I1102 14:14:15.581953 21547 net.cpp:151] Top shape: 32 192 8 8 (393216)
I1102 14:14:15.581957 21547 net.cpp:159] Memory required for data: 78905856
I1102 14:14:15.581962 21547 layer_factory.hpp:77] Creating layer inception_3b/5x5_reduce
I1102 14:14:15.581974 21547 net.cpp:94] Creating Layer inception_3b/5x5_reduce
I1102 14:14:15.581979 21547 net.cpp:435] inception_3b/5x5_reduce <- inception_3a/output_inception_3a/output_0_split_2
I1102 14:14:15.581989 21547 net.cpp:409] inception_3b/5x5_reduce -> inception_3b/5x5_reduce
I1102 14:14:15.584885 21547 net.cpp:144] Setting up inception_3b/5x5_reduce
I1102 14:14:15.584916 21547 net.cpp:151] Top shape: 32 32 8 8 (65536)
I1102 14:14:15.584923 21547 net.cpp:159] Memory required for data: 79168000
I1102 14:14:15.584933 21547 layer_factory.hpp:77] Creating layer inception_3b/relu_5x5_reduce
I1102 14:14:15.584944 21547 net.cpp:94] Creating Layer inception_3b/relu_5x5_reduce
I1102 14:14:15.584949 21547 net.cpp:435] inception_3b/relu_5x5_reduce <- inception_3b/5x5_reduce
I1102 14:14:15.584956 21547 net.cpp:396] inception_3b/relu_5x5_reduce -> inception_3b/5x5_reduce (in-place)
I1102 14:14:15.584969 21547 net.cpp:144] Setting up inception_3b/relu_5x5_reduce
I1102 14:14:15.584975 21547 net.cpp:151] Top shape: 32 32 8 8 (65536)
I1102 14:14:15.584980 21547 net.cpp:159] Memory required for data: 79430144
I1102 14:14:15.584986 21547 layer_factory.hpp:77] Creating layer inception_3b/5x5
I1102 14:14:15.584997 21547 net.cpp:94] Creating Layer inception_3b/5x5
I1102 14:14:15.585002 21547 net.cpp:435] inception_3b/5x5 <- inception_3b/5x5_reduce
I1102 14:14:15.585013 21547 net.cpp:409] inception_3b/5x5 -> inception_3b/5x5
I1102 14:14:15.588583 21547 net.cpp:144] Setting up inception_3b/5x5
I1102 14:14:15.588601 21547 net.cpp:151] Top shape: 32 96 8 8 (196608)
I1102 14:14:15.588608 21547 net.cpp:159] Memory required for data: 80216576
I1102 14:14:15.588616 21547 layer_factory.hpp:77] Creating layer inception_3b/relu_5x5
I1102 14:14:15.588625 21547 net.cpp:94] Creating Layer inception_3b/relu_5x5
I1102 14:14:15.588631 21547 net.cpp:435] inception_3b/relu_5x5 <- inception_3b/5x5
I1102 14:14:15.588639 21547 net.cpp:396] inception_3b/relu_5x5 -> inception_3b/5x5 (in-place)
I1102 14:14:15.588650 21547 net.cpp:144] Setting up inception_3b/relu_5x5
I1102 14:14:15.588657 21547 net.cpp:151] Top shape: 32 96 8 8 (196608)
I1102 14:14:15.588662 21547 net.cpp:159] Memory required for data: 81003008
I1102 14:14:15.588667 21547 layer_factory.hpp:77] Creating layer inception_3b/pool
I1102 14:14:15.588675 21547 net.cpp:94] Creating Layer inception_3b/pool
I1102 14:14:15.588681 21547 net.cpp:435] inception_3b/pool <- inception_3a/output_inception_3a/output_0_split_3
I1102 14:14:15.588690 21547 net.cpp:409] inception_3b/pool -> inception_3b/pool
I1102 14:14:15.588748 21547 net.cpp:144] Setting up inception_3b/pool
I1102 14:14:15.588757 21547 net.cpp:151] Top shape: 32 256 8 8 (524288)
I1102 14:14:15.588762 21547 net.cpp:159] Memory required for data: 83100160
I1102 14:14:15.588768 21547 layer_factory.hpp:77] Creating layer inception_3b/pool_proj
I1102 14:14:15.588781 21547 net.cpp:94] Creating Layer inception_3b/pool_proj
I1102 14:14:15.588788 21547 net.cpp:435] inception_3b/pool_proj <- inception_3b/pool
I1102 14:14:15.588795 21547 net.cpp:409] inception_3b/pool_proj -> inception_3b/pool_proj
I1102 14:14:15.591576 21547 net.cpp:144] Setting up inception_3b/pool_proj
I1102 14:14:15.591594 21547 net.cpp:151] Top shape: 32 64 8 8 (131072)
I1102 14:14:15.591600 21547 net.cpp:159] Memory required for data: 83624448
I1102 14:14:15.591610 21547 layer_factory.hpp:77] Creating layer inception_3b/relu_pool_proj
I1102 14:14:15.591620 21547 net.cpp:94] Creating Layer inception_3b/relu_pool_proj
I1102 14:14:15.591627 21547 net.cpp:435] inception_3b/relu_pool_proj <- inception_3b/pool_proj
I1102 14:14:15.591635 21547 net.cpp:396] inception_3b/relu_pool_proj -> inception_3b/pool_proj (in-place)
I1102 14:14:15.591646 21547 net.cpp:144] Setting up inception_3b/relu_pool_proj
I1102 14:14:15.591653 21547 net.cpp:151] Top shape: 32 64 8 8 (131072)
I1102 14:14:15.591658 21547 net.cpp:159] Memory required for data: 84148736
I1102 14:14:15.591663 21547 layer_factory.hpp:77] Creating layer inception_3b/output
I1102 14:14:15.591671 21547 net.cpp:94] Creating Layer inception_3b/output
I1102 14:14:15.591677 21547 net.cpp:435] inception_3b/output <- inception_3b/1x1
I1102 14:14:15.591683 21547 net.cpp:435] inception_3b/output <- inception_3b/3x3
I1102 14:14:15.591689 21547 net.cpp:435] inception_3b/output <- inception_3b/5x5
I1102 14:14:15.591696 21547 net.cpp:435] inception_3b/output <- inception_3b/pool_proj
I1102 14:14:15.591702 21547 net.cpp:409] inception_3b/output -> inception_3b/output
I1102 14:14:15.591754 21547 net.cpp:144] Setting up inception_3b/output
I1102 14:14:15.591766 21547 net.cpp:151] Top shape: 32 480 8 8 (983040)
I1102 14:14:15.591771 21547 net.cpp:159] Memory required for data: 88080896
I1102 14:14:15.591776 21547 layer_factory.hpp:77] Creating layer pool3/3x3_s2
I1102 14:14:15.591784 21547 net.cpp:94] Creating Layer pool3/3x3_s2
I1102 14:14:15.591790 21547 net.cpp:435] pool3/3x3_s2 <- inception_3b/output
I1102 14:14:15.591799 21547 net.cpp:409] pool3/3x3_s2 -> pool3/3x3_s2
I1102 14:14:15.591846 21547 net.cpp:144] Setting up pool3/3x3_s2
I1102 14:14:15.591855 21547 net.cpp:151] Top shape: 32 480 4 4 (245760)
I1102 14:14:15.591859 21547 net.cpp:159] Memory required for data: 89063936
I1102 14:14:15.591864 21547 layer_factory.hpp:77] Creating layer pool3/3x3_s2_pool3/3x3_s2_0_split
I1102 14:14:15.591873 21547 net.cpp:94] Creating Layer pool3/3x3_s2_pool3/3x3_s2_0_split
I1102 14:14:15.591878 21547 net.cpp:435] pool3/3x3_s2_pool3/3x3_s2_0_split <- pool3/3x3_s2
I1102 14:14:15.591889 21547 net.cpp:409] pool3/3x3_s2_pool3/3x3_s2_0_split -> pool3/3x3_s2_pool3/3x3_s2_0_split_0
I1102 14:14:15.591898 21547 net.cpp:409] pool3/3x3_s2_pool3/3x3_s2_0_split -> pool3/3x3_s2_pool3/3x3_s2_0_split_1
I1102 14:14:15.591907 21547 net.cpp:409] pool3/3x3_s2_pool3/3x3_s2_0_split -> pool3/3x3_s2_pool3/3x3_s2_0_split_2
I1102 14:14:15.591917 21547 net.cpp:409] pool3/3x3_s2_pool3/3x3_s2_0_split -> pool3/3x3_s2_pool3/3x3_s2_0_split_3
I1102 14:14:15.591986 21547 net.cpp:144] Setting up pool3/3x3_s2_pool3/3x3_s2_0_split
I1102 14:14:15.591994 21547 net.cpp:151] Top shape: 32 480 4 4 (245760)
I1102 14:14:15.592000 21547 net.cpp:151] Top shape: 32 480 4 4 (245760)
I1102 14:14:15.592005 21547 net.cpp:151] Top shape: 32 480 4 4 (245760)
I1102 14:14:15.592011 21547 net.cpp:151] Top shape: 32 480 4 4 (245760)
I1102 14:14:15.592016 21547 net.cpp:159] Memory required for data: 92996096
I1102 14:14:15.592021 21547 layer_factory.hpp:77] Creating layer inception_4a/1x1
I1102 14:14:15.592033 21547 net.cpp:94] Creating Layer inception_4a/1x1
I1102 14:14:15.592039 21547 net.cpp:435] inception_4a/1x1 <- pool3/3x3_s2_pool3/3x3_s2_0_split_0
I1102 14:14:15.592049 21547 net.cpp:409] inception_4a/1x1 -> inception_4a/1x1
I1102 14:14:15.596079 21547 net.cpp:144] Setting up inception_4a/1x1
I1102 14:14:15.596096 21547 net.cpp:151] Top shape: 32 192 4 4 (98304)
I1102 14:14:15.596102 21547 net.cpp:159] Memory required for data: 93389312
I1102 14:14:15.596112 21547 layer_factory.hpp:77] Creating layer inception_4a/relu_1x1
I1102 14:14:15.596122 21547 net.cpp:94] Creating Layer inception_4a/relu_1x1
I1102 14:14:15.596128 21547 net.cpp:435] inception_4a/relu_1x1 <- inception_4a/1x1
I1102 14:14:15.596135 21547 net.cpp:396] inception_4a/relu_1x1 -> inception_4a/1x1 (in-place)
I1102 14:14:15.596146 21547 net.cpp:144] Setting up inception_4a/relu_1x1
I1102 14:14:15.596153 21547 net.cpp:151] Top shape: 32 192 4 4 (98304)
I1102 14:14:15.596158 21547 net.cpp:159] Memory required for data: 93782528
I1102 14:14:15.596164 21547 layer_factory.hpp:77] Creating layer inception_4a/3x3_reduce
I1102 14:14:15.596174 21547 net.cpp:94] Creating Layer inception_4a/3x3_reduce
I1102 14:14:15.596180 21547 net.cpp:435] inception_4a/3x3_reduce <- pool3/3x3_s2_pool3/3x3_s2_0_split_1
I1102 14:14:15.596191 21547 net.cpp:409] inception_4a/3x3_reduce -> inception_4a/3x3_reduce
I1102 14:14:15.598906 21547 net.cpp:144] Setting up inception_4a/3x3_reduce
I1102 14:14:15.598923 21547 net.cpp:151] Top shape: 32 96 4 4 (49152)
I1102 14:14:15.598928 21547 net.cpp:159] Memory required for data: 93979136
I1102 14:14:15.598943 21547 layer_factory.hpp:77] Creating layer inception_4a/relu_3x3_reduce
I1102 14:14:15.598953 21547 net.cpp:94] Creating Layer inception_4a/relu_3x3_reduce
I1102 14:14:15.598959 21547 net.cpp:435] inception_4a/relu_3x3_reduce <- inception_4a/3x3_reduce
I1102 14:14:15.598968 21547 net.cpp:396] inception_4a/relu_3x3_reduce -> inception_4a/3x3_reduce (in-place)
I1102 14:14:15.598980 21547 net.cpp:144] Setting up inception_4a/relu_3x3_reduce
I1102 14:14:15.599001 21547 net.cpp:151] Top shape: 32 96 4 4 (49152)
I1102 14:14:15.599006 21547 net.cpp:159] Memory required for data: 94175744
I1102 14:14:15.599012 21547 layer_factory.hpp:77] Creating layer inception_4a/3x3
I1102 14:14:15.599025 21547 net.cpp:94] Creating Layer inception_4a/3x3
I1102 14:14:15.599031 21547 net.cpp:435] inception_4a/3x3 <- inception_4a/3x3_reduce
I1102 14:14:15.599040 21547 net.cpp:409] inception_4a/3x3 -> inception_4a/3x3
I1102 14:14:15.604985 21547 net.cpp:144] Setting up inception_4a/3x3
I1102 14:14:15.605003 21547 net.cpp:151] Top shape: 32 208 4 4 (106496)
I1102 14:14:15.605010 21547 net.cpp:159] Memory required for data: 94601728
I1102 14:14:15.605020 21547 layer_factory.hpp:77] Creating layer inception_4a/relu_3x3
I1102 14:14:15.605028 21547 net.cpp:94] Creating Layer inception_4a/relu_3x3
I1102 14:14:15.605034 21547 net.cpp:435] inception_4a/relu_3x3 <- inception_4a/3x3
I1102 14:14:15.605043 21547 net.cpp:396] inception_4a/relu_3x3 -> inception_4a/3x3 (in-place)
I1102 14:14:15.605056 21547 net.cpp:144] Setting up inception_4a/relu_3x3
I1102 14:14:15.605062 21547 net.cpp:151] Top shape: 32 208 4 4 (106496)
I1102 14:14:15.605068 21547 net.cpp:159] Memory required for data: 95027712
I1102 14:14:15.605073 21547 layer_factory.hpp:77] Creating layer inception_4a/5x5_reduce
I1102 14:14:15.605087 21547 net.cpp:94] Creating Layer inception_4a/5x5_reduce
I1102 14:14:15.605113 21547 net.cpp:435] inception_4a/5x5_reduce <- pool3/3x3_s2_pool3/3x3_s2_0_split_2
I1102 14:14:15.605124 21547 net.cpp:409] inception_4a/5x5_reduce -> inception_4a/5x5_reduce
I1102 14:14:15.607342 21547 net.cpp:144] Setting up inception_4a/5x5_reduce
I1102 14:14:15.607359 21547 net.cpp:151] Top shape: 32 16 4 4 (8192)
I1102 14:14:15.607365 21547 net.cpp:159] Memory required for data: 95060480
I1102 14:14:15.607375 21547 layer_factory.hpp:77] Creating layer inception_4a/relu_5x5_reduce
I1102 14:14:15.607383 21547 net.cpp:94] Creating Layer inception_4a/relu_5x5_reduce
I1102 14:14:15.607390 21547 net.cpp:435] inception_4a/relu_5x5_reduce <- inception_4a/5x5_reduce
I1102 14:14:15.607398 21547 net.cpp:396] inception_4a/relu_5x5_reduce -> inception_4a/5x5_reduce (in-place)
I1102 14:14:15.607409 21547 net.cpp:144] Setting up inception_4a/relu_5x5_reduce
I1102 14:14:15.607416 21547 net.cpp:151] Top shape: 32 16 4 4 (8192)
I1102 14:14:15.607421 21547 net.cpp:159] Memory required for data: 95093248
I1102 14:14:15.607426 21547 layer_factory.hpp:77] Creating layer inception_4a/5x5
I1102 14:14:15.607441 21547 net.cpp:94] Creating Layer inception_4a/5x5
I1102 14:14:15.607446 21547 net.cpp:435] inception_4a/5x5 <- inception_4a/5x5_reduce
I1102 14:14:15.607455 21547 net.cpp:409] inception_4a/5x5 -> inception_4a/5x5
I1102 14:14:15.610532 21547 net.cpp:144] Setting up inception_4a/5x5
I1102 14:14:15.610548 21547 net.cpp:151] Top shape: 32 48 4 4 (24576)
I1102 14:14:15.610554 21547 net.cpp:159] Memory required for data: 95191552
I1102 14:14:15.610564 21547 layer_factory.hpp:77] Creating layer inception_4a/relu_5x5
I1102 14:14:15.610572 21547 net.cpp:94] Creating Layer inception_4a/relu_5x5
I1102 14:14:15.610579 21547 net.cpp:435] inception_4a/relu_5x5 <- inception_4a/5x5
I1102 14:14:15.610586 21547 net.cpp:396] inception_4a/relu_5x5 -> inception_4a/5x5 (in-place)
I1102 14:14:15.610597 21547 net.cpp:144] Setting up inception_4a/relu_5x5
I1102 14:14:15.610605 21547 net.cpp:151] Top shape: 32 48 4 4 (24576)
I1102 14:14:15.610610 21547 net.cpp:159] Memory required for data: 95289856
I1102 14:14:15.610615 21547 layer_factory.hpp:77] Creating layer inception_4a/pool
I1102 14:14:15.610625 21547 net.cpp:94] Creating Layer inception_4a/pool
I1102 14:14:15.610630 21547 net.cpp:435] inception_4a/pool <- pool3/3x3_s2_pool3/3x3_s2_0_split_3
I1102 14:14:15.610637 21547 net.cpp:409] inception_4a/pool -> inception_4a/pool
I1102 14:14:15.610697 21547 net.cpp:144] Setting up inception_4a/pool
I1102 14:14:15.610707 21547 net.cpp:151] Top shape: 32 480 4 4 (245760)
I1102 14:14:15.610712 21547 net.cpp:159] Memory required for data: 96272896
I1102 14:14:15.610729 21547 layer_factory.hpp:77] Creating layer inception_4a/pool_proj
I1102 14:14:15.610743 21547 net.cpp:94] Creating Layer inception_4a/pool_proj
I1102 14:14:15.610749 21547 net.cpp:435] inception_4a/pool_proj <- inception_4a/pool
I1102 14:14:15.610759 21547 net.cpp:409] inception_4a/pool_proj -> inception_4a/pool_proj
I1102 14:14:15.613273 21547 net.cpp:144] Setting up inception_4a/pool_proj
I1102 14:14:15.613291 21547 net.cpp:151] Top shape: 32 64 4 4 (32768)
I1102 14:14:15.613296 21547 net.cpp:159] Memory required for data: 96403968
I1102 14:14:15.613306 21547 layer_factory.hpp:77] Creating layer inception_4a/relu_pool_proj
I1102 14:14:15.613314 21547 net.cpp:94] Creating Layer inception_4a/relu_pool_proj
I1102 14:14:15.613320 21547 net.cpp:435] inception_4a/relu_pool_proj <- inception_4a/pool_proj
I1102 14:14:15.613329 21547 net.cpp:396] inception_4a/relu_pool_proj -> inception_4a/pool_proj (in-place)
I1102 14:14:15.613342 21547 net.cpp:144] Setting up inception_4a/relu_pool_proj
I1102 14:14:15.613348 21547 net.cpp:151] Top shape: 32 64 4 4 (32768)
I1102 14:14:15.613354 21547 net.cpp:159] Memory required for data: 96535040
I1102 14:14:15.613359 21547 layer_factory.hpp:77] Creating layer inception_4a/output
I1102 14:14:15.613366 21547 net.cpp:94] Creating Layer inception_4a/output
I1102 14:14:15.613373 21547 net.cpp:435] inception_4a/output <- inception_4a/1x1
I1102 14:14:15.613379 21547 net.cpp:435] inception_4a/output <- inception_4a/3x3
I1102 14:14:15.613384 21547 net.cpp:435] inception_4a/output <- inception_4a/5x5
I1102 14:14:15.613390 21547 net.cpp:435] inception_4a/output <- inception_4a/pool_proj
I1102 14:14:15.613397 21547 net.cpp:409] inception_4a/output -> inception_4a/output
I1102 14:14:15.613437 21547 net.cpp:144] Setting up inception_4a/output
I1102 14:14:15.613446 21547 net.cpp:151] Top shape: 32 512 4 4 (262144)
I1102 14:14:15.613451 21547 net.cpp:159] Memory required for data: 97583616
I1102 14:14:15.613456 21547 layer_factory.hpp:77] Creating layer inception_4a/output_inception_4a/output_0_split
I1102 14:14:15.613464 21547 net.cpp:94] Creating Layer inception_4a/output_inception_4a/output_0_split
I1102 14:14:15.613469 21547 net.cpp:435] inception_4a/output_inception_4a/output_0_split <- inception_4a/output
I1102 14:14:15.613478 21547 net.cpp:409] inception_4a/output_inception_4a/output_0_split -> inception_4a/output_inception_4a/output_0_split_0
I1102 14:14:15.613488 21547 net.cpp:409] inception_4a/output_inception_4a/output_0_split -> inception_4a/output_inception_4a/output_0_split_1
I1102 14:14:15.613497 21547 net.cpp:409] inception_4a/output_inception_4a/output_0_split -> inception_4a/output_inception_4a/output_0_split_2
I1102 14:14:15.613507 21547 net.cpp:409] inception_4a/output_inception_4a/output_0_split -> inception_4a/output_inception_4a/output_0_split_3
I1102 14:14:15.613514 21547 net.cpp:409] inception_4a/output_inception_4a/output_0_split -> inception_4a/output_inception_4a/output_0_split_4
I1102 14:14:15.613608 21547 net.cpp:144] Setting up inception_4a/output_inception_4a/output_0_split
I1102 14:14:15.613616 21547 net.cpp:151] Top shape: 32 512 4 4 (262144)
I1102 14:14:15.613623 21547 net.cpp:151] Top shape: 32 512 4 4 (262144)
I1102 14:14:15.613628 21547 net.cpp:151] Top shape: 32 512 4 4 (262144)
I1102 14:14:15.613634 21547 net.cpp:151] Top shape: 32 512 4 4 (262144)
I1102 14:14:15.613641 21547 net.cpp:151] Top shape: 32 512 4 4 (262144)
I1102 14:14:15.613646 21547 net.cpp:159] Memory required for data: 102826496
I1102 14:14:15.613651 21547 layer_factory.hpp:77] Creating layer loss1/ave_pool
I1102 14:14:15.613657 21547 net.cpp:94] Creating Layer loss1/ave_pool
I1102 14:14:15.613663 21547 net.cpp:435] loss1/ave_pool <- inception_4a/output_inception_4a/output_0_split_0
I1102 14:14:15.613672 21547 net.cpp:409] loss1/ave_pool -> loss1/ave_pool
I1102 14:14:15.613715 21547 net.cpp:144] Setting up loss1/ave_pool
I1102 14:14:15.613723 21547 net.cpp:151] Top shape: 32 512 1 1 (16384)
I1102 14:14:15.613729 21547 net.cpp:159] Memory required for data: 102892032
I1102 14:14:15.613746 21547 layer_factory.hpp:77] Creating layer loss1/conv
I1102 14:14:15.613759 21547 net.cpp:94] Creating Layer loss1/conv
I1102 14:14:15.613765 21547 net.cpp:435] loss1/conv <- loss1/ave_pool
I1102 14:14:15.613775 21547 net.cpp:409] loss1/conv -> loss1/conv
I1102 14:14:15.616745 21547 net.cpp:144] Setting up loss1/conv
I1102 14:14:15.616762 21547 net.cpp:151] Top shape: 32 128 1 1 (4096)
I1102 14:14:15.616768 21547 net.cpp:159] Memory required for data: 102908416
I1102 14:14:15.616778 21547 layer_factory.hpp:77] Creating layer loss1/relu_conv
I1102 14:14:15.616787 21547 net.cpp:94] Creating Layer loss1/relu_conv
I1102 14:14:15.616793 21547 net.cpp:435] loss1/relu_conv <- loss1/conv
I1102 14:14:15.616803 21547 net.cpp:396] loss1/relu_conv -> loss1/conv (in-place)
I1102 14:14:15.616814 21547 net.cpp:144] Setting up loss1/relu_conv
I1102 14:14:15.616822 21547 net.cpp:151] Top shape: 32 128 1 1 (4096)
I1102 14:14:15.616827 21547 net.cpp:159] Memory required for data: 102924800
I1102 14:14:15.616832 21547 layer_factory.hpp:77] Creating layer loss1/fc
I1102 14:14:15.616844 21547 net.cpp:94] Creating Layer loss1/fc
I1102 14:14:15.616849 21547 net.cpp:435] loss1/fc <- loss1/conv
I1102 14:14:15.616859 21547 net.cpp:409] loss1/fc -> loss1/fc
I1102 14:14:15.618180 21547 net.cpp:144] Setting up loss1/fc
I1102 14:14:15.618196 21547 net.cpp:151] Top shape: 32 1024 (32768)
I1102 14:14:15.618201 21547 net.cpp:159] Memory required for data: 103055872
I1102 14:14:15.618208 21547 layer_factory.hpp:77] Creating layer loss1/relu_fc
I1102 14:14:15.618216 21547 net.cpp:94] Creating Layer loss1/relu_fc
I1102 14:14:15.618221 21547 net.cpp:435] loss1/relu_fc <- loss1/fc
I1102 14:14:15.618227 21547 net.cpp:396] loss1/relu_fc -> loss1/fc (in-place)
I1102 14:14:15.618237 21547 net.cpp:144] Setting up loss1/relu_fc
I1102 14:14:15.618243 21547 net.cpp:151] Top shape: 32 1024 (32768)
I1102 14:14:15.618248 21547 net.cpp:159] Memory required for data: 103186944
I1102 14:14:15.618252 21547 layer_factory.hpp:77] Creating layer loss1/drop_fc
I1102 14:14:15.618270 21547 net.cpp:94] Creating Layer loss1/drop_fc
I1102 14:14:15.618276 21547 net.cpp:435] loss1/drop_fc <- loss1/fc
I1102 14:14:15.618283 21547 net.cpp:396] loss1/drop_fc -> loss1/fc (in-place)
I1102 14:14:15.618315 21547 net.cpp:144] Setting up loss1/drop_fc
I1102 14:14:15.618324 21547 net.cpp:151] Top shape: 32 1024 (32768)
I1102 14:14:15.618329 21547 net.cpp:159] Memory required for data: 103318016
I1102 14:14:15.618333 21547 layer_factory.hpp:77] Creating layer loss1/classifier
I1102 14:14:15.618343 21547 net.cpp:94] Creating Layer loss1/classifier
I1102 14:14:15.618348 21547 net.cpp:435] loss1/classifier <- loss1/fc
I1102 14:14:15.618357 21547 net.cpp:409] loss1/classifier -> loss1/classifier
I1102 14:14:15.618566 21547 net.cpp:144] Setting up loss1/classifier
I1102 14:14:15.618576 21547 net.cpp:151] Top shape: 32 10 (320)
I1102 14:14:15.618580 21547 net.cpp:159] Memory required for data: 103319296
I1102 14:14:15.618587 21547 layer_factory.hpp:77] Creating layer loss1/loss
I1102 14:14:15.618600 21547 net.cpp:94] Creating Layer loss1/loss
I1102 14:14:15.618605 21547 net.cpp:435] loss1/loss <- loss1/classifier
I1102 14:14:15.618612 21547 net.cpp:435] loss1/loss <- label_train-data_1_split_0
I1102 14:14:15.618618 21547 net.cpp:409] loss1/loss -> loss1/loss
I1102 14:14:15.618633 21547 layer_factory.hpp:77] Creating layer loss1/loss
I1102 14:14:15.618748 21547 net.cpp:144] Setting up loss1/loss
I1102 14:14:15.618757 21547 net.cpp:151] Top shape: (1)
I1102 14:14:15.618762 21547 net.cpp:154]     with loss weight 0.3
I1102 14:14:15.618784 21547 net.cpp:159] Memory required for data: 103319300
I1102 14:14:15.618790 21547 layer_factory.hpp:77] Creating layer inception_4b/1x1
I1102 14:14:15.618803 21547 net.cpp:94] Creating Layer inception_4b/1x1
I1102 14:14:15.618808 21547 net.cpp:435] inception_4b/1x1 <- inception_4a/output_inception_4a/output_0_split_1
I1102 14:14:15.618816 21547 net.cpp:409] inception_4b/1x1 -> inception_4b/1x1
I1102 14:14:15.622398 21547 net.cpp:144] Setting up inception_4b/1x1
I1102 14:14:15.622427 21547 net.cpp:151] Top shape: 32 160 4 4 (81920)
I1102 14:14:15.622433 21547 net.cpp:159] Memory required for data: 103646980
I1102 14:14:15.622443 21547 layer_factory.hpp:77] Creating layer inception_4b/relu_1x1
I1102 14:14:15.622453 21547 net.cpp:94] Creating Layer inception_4b/relu_1x1
I1102 14:14:15.622460 21547 net.cpp:435] inception_4b/relu_1x1 <- inception_4b/1x1
I1102 14:14:15.622467 21547 net.cpp:396] inception_4b/relu_1x1 -> inception_4b/1x1 (in-place)
I1102 14:14:15.622478 21547 net.cpp:144] Setting up inception_4b/relu_1x1
I1102 14:14:15.622485 21547 net.cpp:151] Top shape: 32 160 4 4 (81920)
I1102 14:14:15.622490 21547 net.cpp:159] Memory required for data: 103974660
I1102 14:14:15.622495 21547 layer_factory.hpp:77] Creating layer inception_4b/3x3_reduce
I1102 14:14:15.622505 21547 net.cpp:94] Creating Layer inception_4b/3x3_reduce
I1102 14:14:15.622511 21547 net.cpp:435] inception_4b/3x3_reduce <- inception_4a/output_inception_4a/output_0_split_2
I1102 14:14:15.622521 21547 net.cpp:409] inception_4b/3x3_reduce -> inception_4b/3x3_reduce
I1102 14:14:15.625430 21547 net.cpp:144] Setting up inception_4b/3x3_reduce
I1102 14:14:15.625447 21547 net.cpp:151] Top shape: 32 112 4 4 (57344)
I1102 14:14:15.625452 21547 net.cpp:159] Memory required for data: 104204036
I1102 14:14:15.625463 21547 layer_factory.hpp:77] Creating layer inception_4b/relu_3x3_reduce
I1102 14:14:15.625473 21547 net.cpp:94] Creating Layer inception_4b/relu_3x3_reduce
I1102 14:14:15.625478 21547 net.cpp:435] inception_4b/relu_3x3_reduce <- inception_4b/3x3_reduce
I1102 14:14:15.625486 21547 net.cpp:396] inception_4b/relu_3x3_reduce -> inception_4b/3x3_reduce (in-place)
I1102 14:14:15.625497 21547 net.cpp:144] Setting up inception_4b/relu_3x3_reduce
I1102 14:14:15.625504 21547 net.cpp:151] Top shape: 32 112 4 4 (57344)
I1102 14:14:15.625509 21547 net.cpp:159] Memory required for data: 104433412
I1102 14:14:15.625514 21547 layer_factory.hpp:77] Creating layer inception_4b/3x3
I1102 14:14:15.625524 21547 net.cpp:94] Creating Layer inception_4b/3x3
I1102 14:14:15.625530 21547 net.cpp:435] inception_4b/3x3 <- inception_4b/3x3_reduce
I1102 14:14:15.625540 21547 net.cpp:409] inception_4b/3x3 -> inception_4b/3x3
I1102 14:14:15.632149 21547 net.cpp:144] Setting up inception_4b/3x3
I1102 14:14:15.632164 21547 net.cpp:151] Top shape: 32 224 4 4 (114688)
I1102 14:14:15.632169 21547 net.cpp:159] Memory required for data: 104892164
I1102 14:14:15.632177 21547 layer_factory.hpp:77] Creating layer inception_4b/relu_3x3
I1102 14:14:15.632186 21547 net.cpp:94] Creating Layer inception_4b/relu_3x3
I1102 14:14:15.632191 21547 net.cpp:435] inception_4b/relu_3x3 <- inception_4b/3x3
I1102 14:14:15.632197 21547 net.cpp:396] inception_4b/relu_3x3 -> inception_4b/3x3 (in-place)
I1102 14:14:15.632208 21547 net.cpp:144] Setting up inception_4b/relu_3x3
I1102 14:14:15.632215 21547 net.cpp:151] Top shape: 32 224 4 4 (114688)
I1102 14:14:15.632218 21547 net.cpp:159] Memory required for data: 105350916
I1102 14:14:15.632222 21547 layer_factory.hpp:77] Creating layer inception_4b/5x5_reduce
I1102 14:14:15.632232 21547 net.cpp:94] Creating Layer inception_4b/5x5_reduce
I1102 14:14:15.632237 21547 net.cpp:435] inception_4b/5x5_reduce <- inception_4a/output_inception_4a/output_0_split_3
I1102 14:14:15.632246 21547 net.cpp:409] inception_4b/5x5_reduce -> inception_4b/5x5_reduce
I1102 14:14:15.634376 21547 net.cpp:144] Setting up inception_4b/5x5_reduce
I1102 14:14:15.634390 21547 net.cpp:151] Top shape: 32 24 4 4 (12288)
I1102 14:14:15.634394 21547 net.cpp:159] Memory required for data: 105400068
I1102 14:14:15.634402 21547 layer_factory.hpp:77] Creating layer inception_4b/relu_5x5_reduce
I1102 14:14:15.634410 21547 net.cpp:94] Creating Layer inception_4b/relu_5x5_reduce
I1102 14:14:15.634415 21547 net.cpp:435] inception_4b/relu_5x5_reduce <- inception_4b/5x5_reduce
I1102 14:14:15.634421 21547 net.cpp:396] inception_4b/relu_5x5_reduce -> inception_4b/5x5_reduce (in-place)
I1102 14:14:15.634430 21547 net.cpp:144] Setting up inception_4b/relu_5x5_reduce
I1102 14:14:15.634449 21547 net.cpp:151] Top shape: 32 24 4 4 (12288)
I1102 14:14:15.634452 21547 net.cpp:159] Memory required for data: 105449220
I1102 14:14:15.634457 21547 layer_factory.hpp:77] Creating layer inception_4b/5x5
I1102 14:14:15.634469 21547 net.cpp:94] Creating Layer inception_4b/5x5
I1102 14:14:15.634474 21547 net.cpp:435] inception_4b/5x5 <- inception_4b/5x5_reduce
I1102 14:14:15.634481 21547 net.cpp:409] inception_4b/5x5 -> inception_4b/5x5
I1102 14:14:15.636656 21547 net.cpp:144] Setting up inception_4b/5x5
I1102 14:14:15.636669 21547 net.cpp:151] Top shape: 32 64 4 4 (32768)
I1102 14:14:15.636674 21547 net.cpp:159] Memory required for data: 105580292
I1102 14:14:15.636682 21547 layer_factory.hpp:77] Creating layer inception_4b/relu_5x5
I1102 14:14:15.636688 21547 net.cpp:94] Creating Layer inception_4b/relu_5x5
I1102 14:14:15.636693 21547 net.cpp:435] inception_4b/relu_5x5 <- inception_4b/5x5
I1102 14:14:15.636703 21547 net.cpp:396] inception_4b/relu_5x5 -> inception_4b/5x5 (in-place)
I1102 14:14:15.636711 21547 net.cpp:144] Setting up inception_4b/relu_5x5
I1102 14:14:15.636718 21547 net.cpp:151] Top shape: 32 64 4 4 (32768)
I1102 14:14:15.636721 21547 net.cpp:159] Memory required for data: 105711364
I1102 14:14:15.636725 21547 layer_factory.hpp:77] Creating layer inception_4b/pool
I1102 14:14:15.636731 21547 net.cpp:94] Creating Layer inception_4b/pool
I1102 14:14:15.636736 21547 net.cpp:435] inception_4b/pool <- inception_4a/output_inception_4a/output_0_split_4
I1102 14:14:15.636744 21547 net.cpp:409] inception_4b/pool -> inception_4b/pool
I1102 14:14:15.636798 21547 net.cpp:144] Setting up inception_4b/pool
I1102 14:14:15.636806 21547 net.cpp:151] Top shape: 32 512 4 4 (262144)
I1102 14:14:15.636811 21547 net.cpp:159] Memory required for data: 106759940
I1102 14:14:15.636814 21547 layer_factory.hpp:77] Creating layer inception_4b/pool_proj
I1102 14:14:15.636826 21547 net.cpp:94] Creating Layer inception_4b/pool_proj
I1102 14:14:15.636831 21547 net.cpp:435] inception_4b/pool_proj <- inception_4b/pool
I1102 14:14:15.636838 21547 net.cpp:409] inception_4b/pool_proj -> inception_4b/pool_proj
I1102 14:14:15.639188 21547 net.cpp:144] Setting up inception_4b/pool_proj
I1102 14:14:15.639202 21547 net.cpp:151] Top shape: 32 64 4 4 (32768)
I1102 14:14:15.639206 21547 net.cpp:159] Memory required for data: 106891012
I1102 14:14:15.639215 21547 layer_factory.hpp:77] Creating layer inception_4b/relu_pool_proj
I1102 14:14:15.639223 21547 net.cpp:94] Creating Layer inception_4b/relu_pool_proj
I1102 14:14:15.639230 21547 net.cpp:435] inception_4b/relu_pool_proj <- inception_4b/pool_proj
I1102 14:14:15.639235 21547 net.cpp:396] inception_4b/relu_pool_proj -> inception_4b/pool_proj (in-place)
I1102 14:14:15.639245 21547 net.cpp:144] Setting up inception_4b/relu_pool_proj
I1102 14:14:15.639250 21547 net.cpp:151] Top shape: 32 64 4 4 (32768)
I1102 14:14:15.639255 21547 net.cpp:159] Memory required for data: 107022084
I1102 14:14:15.639259 21547 layer_factory.hpp:77] Creating layer inception_4b/output
I1102 14:14:15.639266 21547 net.cpp:94] Creating Layer inception_4b/output
I1102 14:14:15.639269 21547 net.cpp:435] inception_4b/output <- inception_4b/1x1
I1102 14:14:15.639276 21547 net.cpp:435] inception_4b/output <- inception_4b/3x3
I1102 14:14:15.639281 21547 net.cpp:435] inception_4b/output <- inception_4b/5x5
I1102 14:14:15.639286 21547 net.cpp:435] inception_4b/output <- inception_4b/pool_proj
I1102 14:14:15.639291 21547 net.cpp:409] inception_4b/output -> inception_4b/output
I1102 14:14:15.639323 21547 net.cpp:144] Setting up inception_4b/output
I1102 14:14:15.639330 21547 net.cpp:151] Top shape: 32 512 4 4 (262144)
I1102 14:14:15.639334 21547 net.cpp:159] Memory required for data: 108070660
I1102 14:14:15.639338 21547 layer_factory.hpp:77] Creating layer inception_4b/output_inception_4b/output_0_split
I1102 14:14:15.639346 21547 net.cpp:94] Creating Layer inception_4b/output_inception_4b/output_0_split
I1102 14:14:15.639351 21547 net.cpp:435] inception_4b/output_inception_4b/output_0_split <- inception_4b/output
I1102 14:14:15.639369 21547 net.cpp:409] inception_4b/output_inception_4b/output_0_split -> inception_4b/output_inception_4b/output_0_split_0
I1102 14:14:15.639379 21547 net.cpp:409] inception_4b/output_inception_4b/output_0_split -> inception_4b/output_inception_4b/output_0_split_1
I1102 14:14:15.639384 21547 net.cpp:409] inception_4b/output_inception_4b/output_0_split -> inception_4b/output_inception_4b/output_0_split_2
I1102 14:14:15.639391 21547 net.cpp:409] inception_4b/output_inception_4b/output_0_split -> inception_4b/output_inception_4b/output_0_split_3
I1102 14:14:15.639456 21547 net.cpp:144] Setting up inception_4b/output_inception_4b/output_0_split
I1102 14:14:15.639464 21547 net.cpp:151] Top shape: 32 512 4 4 (262144)
I1102 14:14:15.639470 21547 net.cpp:151] Top shape: 32 512 4 4 (262144)
I1102 14:14:15.639474 21547 net.cpp:151] Top shape: 32 512 4 4 (262144)
I1102 14:14:15.639479 21547 net.cpp:151] Top shape: 32 512 4 4 (262144)
I1102 14:14:15.639483 21547 net.cpp:159] Memory required for data: 112264964
I1102 14:14:15.639487 21547 layer_factory.hpp:77] Creating layer inception_4c/1x1
I1102 14:14:15.639498 21547 net.cpp:94] Creating Layer inception_4c/1x1
I1102 14:14:15.639503 21547 net.cpp:435] inception_4c/1x1 <- inception_4b/output_inception_4b/output_0_split_0
I1102 14:14:15.639510 21547 net.cpp:409] inception_4c/1x1 -> inception_4c/1x1
I1102 14:14:15.642740 21547 net.cpp:144] Setting up inception_4c/1x1
I1102 14:14:15.642760 21547 net.cpp:151] Top shape: 32 128 4 4 (65536)
I1102 14:14:15.642767 21547 net.cpp:159] Memory required for data: 112527108
I1102 14:14:15.642778 21547 layer_factory.hpp:77] Creating layer inception_4c/relu_1x1
I1102 14:14:15.642788 21547 net.cpp:94] Creating Layer inception_4c/relu_1x1
I1102 14:14:15.642796 21547 net.cpp:435] inception_4c/relu_1x1 <- inception_4c/1x1
I1102 14:14:15.642803 21547 net.cpp:396] inception_4c/relu_1x1 -> inception_4c/1x1 (in-place)
I1102 14:14:15.642817 21547 net.cpp:144] Setting up inception_4c/relu_1x1
I1102 14:14:15.642825 21547 net.cpp:151] Top shape: 32 128 4 4 (65536)
I1102 14:14:15.642832 21547 net.cpp:159] Memory required for data: 112789252
I1102 14:14:15.642838 21547 layer_factory.hpp:77] Creating layer inception_4c/3x3_reduce
I1102 14:14:15.642853 21547 net.cpp:94] Creating Layer inception_4c/3x3_reduce
I1102 14:14:15.642861 21547 net.cpp:435] inception_4c/3x3_reduce <- inception_4b/output_inception_4b/output_0_split_1
I1102 14:14:15.642870 21547 net.cpp:409] inception_4c/3x3_reduce -> inception_4c/3x3_reduce
I1102 14:14:15.646229 21547 net.cpp:144] Setting up inception_4c/3x3_reduce
I1102 14:14:15.646248 21547 net.cpp:151] Top shape: 32 128 4 4 (65536)
I1102 14:14:15.646255 21547 net.cpp:159] Memory required for data: 113051396
I1102 14:14:15.646267 21547 layer_factory.hpp:77] Creating layer inception_4c/relu_3x3_reduce
I1102 14:14:15.646277 21547 net.cpp:94] Creating Layer inception_4c/relu_3x3_reduce
I1102 14:14:15.646284 21547 net.cpp:435] inception_4c/relu_3x3_reduce <- inception_4c/3x3_reduce
I1102 14:14:15.646294 21547 net.cpp:396] inception_4c/relu_3x3_reduce -> inception_4c/3x3_reduce (in-place)
I1102 14:14:15.646307 21547 net.cpp:144] Setting up inception_4c/relu_3x3_reduce
I1102 14:14:15.646316 21547 net.cpp:151] Top shape: 32 128 4 4 (65536)
I1102 14:14:15.646322 21547 net.cpp:159] Memory required for data: 113313540
I1102 14:14:15.646327 21547 layer_factory.hpp:77] Creating layer inception_4c/3x3
I1102 14:14:15.646342 21547 net.cpp:94] Creating Layer inception_4c/3x3
I1102 14:14:15.646349 21547 net.cpp:435] inception_4c/3x3 <- inception_4c/3x3_reduce
I1102 14:14:15.646360 21547 net.cpp:409] inception_4c/3x3 -> inception_4c/3x3
I1102 14:14:15.654503 21547 net.cpp:144] Setting up inception_4c/3x3
I1102 14:14:15.654521 21547 net.cpp:151] Top shape: 32 256 4 4 (131072)
I1102 14:14:15.654527 21547 net.cpp:159] Memory required for data: 113837828
I1102 14:14:15.654548 21547 layer_factory.hpp:77] Creating layer inception_4c/relu_3x3
I1102 14:14:15.654557 21547 net.cpp:94] Creating Layer inception_4c/relu_3x3
I1102 14:14:15.654577 21547 net.cpp:435] inception_4c/relu_3x3 <- inception_4c/3x3
I1102 14:14:15.654585 21547 net.cpp:396] inception_4c/relu_3x3 -> inception_4c/3x3 (in-place)
I1102 14:14:15.654597 21547 net.cpp:144] Setting up inception_4c/relu_3x3
I1102 14:14:15.654605 21547 net.cpp:151] Top shape: 32 256 4 4 (131072)
I1102 14:14:15.654609 21547 net.cpp:159] Memory required for data: 114362116
I1102 14:14:15.654615 21547 layer_factory.hpp:77] Creating layer inception_4c/5x5_reduce
I1102 14:14:15.654628 21547 net.cpp:94] Creating Layer inception_4c/5x5_reduce
I1102 14:14:15.654634 21547 net.cpp:435] inception_4c/5x5_reduce <- inception_4b/output_inception_4b/output_0_split_2
I1102 14:14:15.654645 21547 net.cpp:409] inception_4c/5x5_reduce -> inception_4c/5x5_reduce
I1102 14:14:15.657205 21547 net.cpp:144] Setting up inception_4c/5x5_reduce
I1102 14:14:15.657223 21547 net.cpp:151] Top shape: 32 24 4 4 (12288)
I1102 14:14:15.657229 21547 net.cpp:159] Memory required for data: 114411268
I1102 14:14:15.657238 21547 layer_factory.hpp:77] Creating layer inception_4c/relu_5x5_reduce
I1102 14:14:15.657248 21547 net.cpp:94] Creating Layer inception_4c/relu_5x5_reduce
I1102 14:14:15.657253 21547 net.cpp:435] inception_4c/relu_5x5_reduce <- inception_4c/5x5_reduce
I1102 14:14:15.657260 21547 net.cpp:396] inception_4c/relu_5x5_reduce -> inception_4c/5x5_reduce (in-place)
I1102 14:14:15.657272 21547 net.cpp:144] Setting up inception_4c/relu_5x5_reduce
I1102 14:14:15.657279 21547 net.cpp:151] Top shape: 32 24 4 4 (12288)
I1102 14:14:15.657284 21547 net.cpp:159] Memory required for data: 114460420
I1102 14:14:15.657289 21547 layer_factory.hpp:77] Creating layer inception_4c/5x5
I1102 14:14:15.657302 21547 net.cpp:94] Creating Layer inception_4c/5x5
I1102 14:14:15.657307 21547 net.cpp:435] inception_4c/5x5 <- inception_4c/5x5_reduce
I1102 14:14:15.657317 21547 net.cpp:409] inception_4c/5x5 -> inception_4c/5x5
I1102 14:14:15.660615 21547 net.cpp:144] Setting up inception_4c/5x5
I1102 14:14:15.660632 21547 net.cpp:151] Top shape: 32 64 4 4 (32768)
I1102 14:14:15.660639 21547 net.cpp:159] Memory required for data: 114591492
I1102 14:14:15.660647 21547 layer_factory.hpp:77] Creating layer inception_4c/relu_5x5
I1102 14:14:15.660655 21547 net.cpp:94] Creating Layer inception_4c/relu_5x5
I1102 14:14:15.660661 21547 net.cpp:435] inception_4c/relu_5x5 <- inception_4c/5x5
I1102 14:14:15.660668 21547 net.cpp:396] inception_4c/relu_5x5 -> inception_4c/5x5 (in-place)
I1102 14:14:15.660681 21547 net.cpp:144] Setting up inception_4c/relu_5x5
I1102 14:14:15.660687 21547 net.cpp:151] Top shape: 32 64 4 4 (32768)
I1102 14:14:15.660692 21547 net.cpp:159] Memory required for data: 114722564
I1102 14:14:15.660697 21547 layer_factory.hpp:77] Creating layer inception_4c/pool
I1102 14:14:15.660704 21547 net.cpp:94] Creating Layer inception_4c/pool
I1102 14:14:15.660711 21547 net.cpp:435] inception_4c/pool <- inception_4b/output_inception_4b/output_0_split_3
I1102 14:14:15.660719 21547 net.cpp:409] inception_4c/pool -> inception_4c/pool
I1102 14:14:15.660780 21547 net.cpp:144] Setting up inception_4c/pool
I1102 14:14:15.660789 21547 net.cpp:151] Top shape: 32 512 4 4 (262144)
I1102 14:14:15.660794 21547 net.cpp:159] Memory required for data: 115771140
I1102 14:14:15.660799 21547 layer_factory.hpp:77] Creating layer inception_4c/pool_proj
I1102 14:14:15.660810 21547 net.cpp:94] Creating Layer inception_4c/pool_proj
I1102 14:14:15.660816 21547 net.cpp:435] inception_4c/pool_proj <- inception_4c/pool
I1102 14:14:15.660825 21547 net.cpp:409] inception_4c/pool_proj -> inception_4c/pool_proj
I1102 14:14:15.663683 21547 net.cpp:144] Setting up inception_4c/pool_proj
I1102 14:14:15.663700 21547 net.cpp:151] Top shape: 32 64 4 4 (32768)
I1102 14:14:15.663707 21547 net.cpp:159] Memory required for data: 115902212
I1102 14:14:15.663715 21547 layer_factory.hpp:77] Creating layer inception_4c/relu_pool_proj
I1102 14:14:15.663724 21547 net.cpp:94] Creating Layer inception_4c/relu_pool_proj
I1102 14:14:15.663730 21547 net.cpp:435] inception_4c/relu_pool_proj <- inception_4c/pool_proj
I1102 14:14:15.663751 21547 net.cpp:396] inception_4c/relu_pool_proj -> inception_4c/pool_proj (in-place)
I1102 14:14:15.663764 21547 net.cpp:144] Setting up inception_4c/relu_pool_proj
I1102 14:14:15.663771 21547 net.cpp:151] Top shape: 32 64 4 4 (32768)
I1102 14:14:15.663775 21547 net.cpp:159] Memory required for data: 116033284
I1102 14:14:15.663780 21547 layer_factory.hpp:77] Creating layer inception_4c/output
I1102 14:14:15.663789 21547 net.cpp:94] Creating Layer inception_4c/output
I1102 14:14:15.663794 21547 net.cpp:435] inception_4c/output <- inception_4c/1x1
I1102 14:14:15.663801 21547 net.cpp:435] inception_4c/output <- inception_4c/3x3
I1102 14:14:15.663808 21547 net.cpp:435] inception_4c/output <- inception_4c/5x5
I1102 14:14:15.663813 21547 net.cpp:435] inception_4c/output <- inception_4c/pool_proj
I1102 14:14:15.663820 21547 net.cpp:409] inception_4c/output -> inception_4c/output
I1102 14:14:15.663861 21547 net.cpp:144] Setting up inception_4c/output
I1102 14:14:15.663871 21547 net.cpp:151] Top shape: 32 512 4 4 (262144)
I1102 14:14:15.663874 21547 net.cpp:159] Memory required for data: 117081860
I1102 14:14:15.663879 21547 layer_factory.hpp:77] Creating layer inception_4c/output_inception_4c/output_0_split
I1102 14:14:15.663887 21547 net.cpp:94] Creating Layer inception_4c/output_inception_4c/output_0_split
I1102 14:14:15.663892 21547 net.cpp:435] inception_4c/output_inception_4c/output_0_split <- inception_4c/output
I1102 14:14:15.663899 21547 net.cpp:409] inception_4c/output_inception_4c/output_0_split -> inception_4c/output_inception_4c/output_0_split_0
I1102 14:14:15.663909 21547 net.cpp:409] inception_4c/output_inception_4c/output_0_split -> inception_4c/output_inception_4c/output_0_split_1
I1102 14:14:15.663918 21547 net.cpp:409] inception_4c/output_inception_4c/output_0_split -> inception_4c/output_inception_4c/output_0_split_2
I1102 14:14:15.663925 21547 net.cpp:409] inception_4c/output_inception_4c/output_0_split -> inception_4c/output_inception_4c/output_0_split_3
I1102 14:14:15.664001 21547 net.cpp:144] Setting up inception_4c/output_inception_4c/output_0_split
I1102 14:14:15.664008 21547 net.cpp:151] Top shape: 32 512 4 4 (262144)
I1102 14:14:15.664014 21547 net.cpp:151] Top shape: 32 512 4 4 (262144)
I1102 14:14:15.664021 21547 net.cpp:151] Top shape: 32 512 4 4 (262144)
I1102 14:14:15.664026 21547 net.cpp:151] Top shape: 32 512 4 4 (262144)
I1102 14:14:15.664031 21547 net.cpp:159] Memory required for data: 121276164
I1102 14:14:15.664036 21547 layer_factory.hpp:77] Creating layer inception_4d/1x1
I1102 14:14:15.664048 21547 net.cpp:94] Creating Layer inception_4d/1x1
I1102 14:14:15.664054 21547 net.cpp:435] inception_4d/1x1 <- inception_4c/output_inception_4c/output_0_split_0
I1102 14:14:15.664062 21547 net.cpp:409] inception_4d/1x1 -> inception_4d/1x1
I1102 14:14:15.667018 21547 net.cpp:144] Setting up inception_4d/1x1
I1102 14:14:15.667037 21547 net.cpp:151] Top shape: 32 112 4 4 (57344)
I1102 14:14:15.667042 21547 net.cpp:159] Memory required for data: 121505540
I1102 14:14:15.667052 21547 layer_factory.hpp:77] Creating layer inception_4d/relu_1x1
I1102 14:14:15.667060 21547 net.cpp:94] Creating Layer inception_4d/relu_1x1
I1102 14:14:15.667067 21547 net.cpp:435] inception_4d/relu_1x1 <- inception_4d/1x1
I1102 14:14:15.667074 21547 net.cpp:396] inception_4d/relu_1x1 -> inception_4d/1x1 (in-place)
I1102 14:14:15.667085 21547 net.cpp:144] Setting up inception_4d/relu_1x1
I1102 14:14:15.667093 21547 net.cpp:151] Top shape: 32 112 4 4 (57344)
I1102 14:14:15.667098 21547 net.cpp:159] Memory required for data: 121734916
I1102 14:14:15.667103 21547 layer_factory.hpp:77] Creating layer inception_4d/3x3_reduce
I1102 14:14:15.667119 21547 net.cpp:94] Creating Layer inception_4d/3x3_reduce
I1102 14:14:15.667124 21547 net.cpp:435] inception_4d/3x3_reduce <- inception_4c/output_inception_4c/output_0_split_1
I1102 14:14:15.667134 21547 net.cpp:409] inception_4d/3x3_reduce -> inception_4d/3x3_reduce
I1102 14:14:15.670722 21547 net.cpp:144] Setting up inception_4d/3x3_reduce
I1102 14:14:15.670742 21547 net.cpp:151] Top shape: 32 144 4 4 (73728)
I1102 14:14:15.670761 21547 net.cpp:159] Memory required for data: 122029828
I1102 14:14:15.670773 21547 layer_factory.hpp:77] Creating layer inception_4d/relu_3x3_reduce
I1102 14:14:15.670781 21547 net.cpp:94] Creating Layer inception_4d/relu_3x3_reduce
I1102 14:14:15.670788 21547 net.cpp:435] inception_4d/relu_3x3_reduce <- inception_4d/3x3_reduce
I1102 14:14:15.670795 21547 net.cpp:396] inception_4d/relu_3x3_reduce -> inception_4d/3x3_reduce (in-place)
I1102 14:14:15.670807 21547 net.cpp:144] Setting up inception_4d/relu_3x3_reduce
I1102 14:14:15.670814 21547 net.cpp:151] Top shape: 32 144 4 4 (73728)
I1102 14:14:15.670819 21547 net.cpp:159] Memory required for data: 122324740
I1102 14:14:15.670825 21547 layer_factory.hpp:77] Creating layer inception_4d/3x3
I1102 14:14:15.670840 21547 net.cpp:94] Creating Layer inception_4d/3x3
I1102 14:14:15.670845 21547 net.cpp:435] inception_4d/3x3 <- inception_4d/3x3_reduce
I1102 14:14:15.670853 21547 net.cpp:409] inception_4d/3x3 -> inception_4d/3x3
I1102 14:14:15.680690 21547 net.cpp:144] Setting up inception_4d/3x3
I1102 14:14:15.680721 21547 net.cpp:151] Top shape: 32 288 4 4 (147456)
I1102 14:14:15.680732 21547 net.cpp:159] Memory required for data: 122914564
I1102 14:14:15.680748 21547 layer_factory.hpp:77] Creating layer inception_4d/relu_3x3
I1102 14:14:15.680763 21547 net.cpp:94] Creating Layer inception_4d/relu_3x3
I1102 14:14:15.680774 21547 net.cpp:435] inception_4d/relu_3x3 <- inception_4d/3x3
I1102 14:14:15.680788 21547 net.cpp:396] inception_4d/relu_3x3 -> inception_4d/3x3 (in-place)
I1102 14:14:15.680809 21547 net.cpp:144] Setting up inception_4d/relu_3x3
I1102 14:14:15.680821 21547 net.cpp:151] Top shape: 32 288 4 4 (147456)
I1102 14:14:15.680830 21547 net.cpp:159] Memory required for data: 123504388
I1102 14:14:15.680838 21547 layer_factory.hpp:77] Creating layer inception_4d/5x5_reduce
I1102 14:14:15.680865 21547 net.cpp:94] Creating Layer inception_4d/5x5_reduce
I1102 14:14:15.680876 21547 net.cpp:435] inception_4d/5x5_reduce <- inception_4c/output_inception_4c/output_0_split_2
I1102 14:14:15.680891 21547 net.cpp:409] inception_4d/5x5_reduce -> inception_4d/5x5_reduce
I1102 14:14:15.683423 21547 net.cpp:144] Setting up inception_4d/5x5_reduce
I1102 14:14:15.683439 21547 net.cpp:151] Top shape: 32 32 4 4 (16384)
I1102 14:14:15.683445 21547 net.cpp:159] Memory required for data: 123569924
I1102 14:14:15.683455 21547 layer_factory.hpp:77] Creating layer inception_4d/relu_5x5_reduce
I1102 14:14:15.683464 21547 net.cpp:94] Creating Layer inception_4d/relu_5x5_reduce
I1102 14:14:15.683470 21547 net.cpp:435] inception_4d/relu_5x5_reduce <- inception_4d/5x5_reduce
I1102 14:14:15.683477 21547 net.cpp:396] inception_4d/relu_5x5_reduce -> inception_4d/5x5_reduce (in-place)
I1102 14:14:15.683490 21547 net.cpp:144] Setting up inception_4d/relu_5x5_reduce
I1102 14:14:15.683496 21547 net.cpp:151] Top shape: 32 32 4 4 (16384)
I1102 14:14:15.683501 21547 net.cpp:159] Memory required for data: 123635460
I1102 14:14:15.683506 21547 layer_factory.hpp:77] Creating layer inception_4d/5x5
I1102 14:14:15.683521 21547 net.cpp:94] Creating Layer inception_4d/5x5
I1102 14:14:15.683527 21547 net.cpp:435] inception_4d/5x5 <- inception_4d/5x5_reduce
I1102 14:14:15.683535 21547 net.cpp:409] inception_4d/5x5 -> inception_4d/5x5
I1102 14:14:15.686185 21547 net.cpp:144] Setting up inception_4d/5x5
I1102 14:14:15.686203 21547 net.cpp:151] Top shape: 32 64 4 4 (32768)
I1102 14:14:15.686208 21547 net.cpp:159] Memory required for data: 123766532
I1102 14:14:15.686218 21547 layer_factory.hpp:77] Creating layer inception_4d/relu_5x5
I1102 14:14:15.686228 21547 net.cpp:94] Creating Layer inception_4d/relu_5x5
I1102 14:14:15.686233 21547 net.cpp:435] inception_4d/relu_5x5 <- inception_4d/5x5
I1102 14:14:15.686241 21547 net.cpp:396] inception_4d/relu_5x5 -> inception_4d/5x5 (in-place)
I1102 14:14:15.686252 21547 net.cpp:144] Setting up inception_4d/relu_5x5
I1102 14:14:15.686260 21547 net.cpp:151] Top shape: 32 64 4 4 (32768)
I1102 14:14:15.686265 21547 net.cpp:159] Memory required for data: 123897604
I1102 14:14:15.686283 21547 layer_factory.hpp:77] Creating layer inception_4d/pool
I1102 14:14:15.686293 21547 net.cpp:94] Creating Layer inception_4d/pool
I1102 14:14:15.686300 21547 net.cpp:435] inception_4d/pool <- inception_4c/output_inception_4c/output_0_split_3
I1102 14:14:15.686309 21547 net.cpp:409] inception_4d/pool -> inception_4d/pool
I1102 14:14:15.686372 21547 net.cpp:144] Setting up inception_4d/pool
I1102 14:14:15.686381 21547 net.cpp:151] Top shape: 32 512 4 4 (262144)
I1102 14:14:15.686386 21547 net.cpp:159] Memory required for data: 124946180
I1102 14:14:15.686391 21547 layer_factory.hpp:77] Creating layer inception_4d/pool_proj
I1102 14:14:15.686408 21547 net.cpp:94] Creating Layer inception_4d/pool_proj
I1102 14:14:15.686414 21547 net.cpp:435] inception_4d/pool_proj <- inception_4d/pool
I1102 14:14:15.686421 21547 net.cpp:409] inception_4d/pool_proj -> inception_4d/pool_proj
I1102 14:14:15.689025 21547 net.cpp:144] Setting up inception_4d/pool_proj
I1102 14:14:15.689043 21547 net.cpp:151] Top shape: 32 64 4 4 (32768)
I1102 14:14:15.689049 21547 net.cpp:159] Memory required for data: 125077252
I1102 14:14:15.689059 21547 layer_factory.hpp:77] Creating layer inception_4d/relu_pool_proj
I1102 14:14:15.689069 21547 net.cpp:94] Creating Layer inception_4d/relu_pool_proj
I1102 14:14:15.689075 21547 net.cpp:435] inception_4d/relu_pool_proj <- inception_4d/pool_proj
I1102 14:14:15.689083 21547 net.cpp:396] inception_4d/relu_pool_proj -> inception_4d/pool_proj (in-place)
I1102 14:14:15.689115 21547 net.cpp:144] Setting up inception_4d/relu_pool_proj
I1102 14:14:15.689124 21547 net.cpp:151] Top shape: 32 64 4 4 (32768)
I1102 14:14:15.689129 21547 net.cpp:159] Memory required for data: 125208324
I1102 14:14:15.689136 21547 layer_factory.hpp:77] Creating layer inception_4d/output
I1102 14:14:15.689143 21547 net.cpp:94] Creating Layer inception_4d/output
I1102 14:14:15.689148 21547 net.cpp:435] inception_4d/output <- inception_4d/1x1
I1102 14:14:15.689155 21547 net.cpp:435] inception_4d/output <- inception_4d/3x3
I1102 14:14:15.689162 21547 net.cpp:435] inception_4d/output <- inception_4d/5x5
I1102 14:14:15.689168 21547 net.cpp:435] inception_4d/output <- inception_4d/pool_proj
I1102 14:14:15.689175 21547 net.cpp:409] inception_4d/output -> inception_4d/output
I1102 14:14:15.689216 21547 net.cpp:144] Setting up inception_4d/output
I1102 14:14:15.689225 21547 net.cpp:151] Top shape: 32 528 4 4 (270336)
I1102 14:14:15.689230 21547 net.cpp:159] Memory required for data: 126289668
I1102 14:14:15.689236 21547 layer_factory.hpp:77] Creating layer inception_4d/output_inception_4d/output_0_split
I1102 14:14:15.689246 21547 net.cpp:94] Creating Layer inception_4d/output_inception_4d/output_0_split
I1102 14:14:15.689251 21547 net.cpp:435] inception_4d/output_inception_4d/output_0_split <- inception_4d/output
I1102 14:14:15.689261 21547 net.cpp:409] inception_4d/output_inception_4d/output_0_split -> inception_4d/output_inception_4d/output_0_split_0
I1102 14:14:15.689270 21547 net.cpp:409] inception_4d/output_inception_4d/output_0_split -> inception_4d/output_inception_4d/output_0_split_1
I1102 14:14:15.689280 21547 net.cpp:409] inception_4d/output_inception_4d/output_0_split -> inception_4d/output_inception_4d/output_0_split_2
I1102 14:14:15.689287 21547 net.cpp:409] inception_4d/output_inception_4d/output_0_split -> inception_4d/output_inception_4d/output_0_split_3
I1102 14:14:15.689296 21547 net.cpp:409] inception_4d/output_inception_4d/output_0_split -> inception_4d/output_inception_4d/output_0_split_4
I1102 14:14:15.689394 21547 net.cpp:144] Setting up inception_4d/output_inception_4d/output_0_split
I1102 14:14:15.689402 21547 net.cpp:151] Top shape: 32 528 4 4 (270336)
I1102 14:14:15.689409 21547 net.cpp:151] Top shape: 32 528 4 4 (270336)
I1102 14:14:15.689414 21547 net.cpp:151] Top shape: 32 528 4 4 (270336)
I1102 14:14:15.689419 21547 net.cpp:151] Top shape: 32 528 4 4 (270336)
I1102 14:14:15.689425 21547 net.cpp:151] Top shape: 32 528 4 4 (270336)
I1102 14:14:15.689430 21547 net.cpp:159] Memory required for data: 131696388
I1102 14:14:15.689448 21547 layer_factory.hpp:77] Creating layer loss2/ave_pool
I1102 14:14:15.689458 21547 net.cpp:94] Creating Layer loss2/ave_pool
I1102 14:14:15.689465 21547 net.cpp:435] loss2/ave_pool <- inception_4d/output_inception_4d/output_0_split_0
I1102 14:14:15.689472 21547 net.cpp:409] loss2/ave_pool -> loss2/ave_pool
I1102 14:14:15.689507 21547 net.cpp:144] Setting up loss2/ave_pool
I1102 14:14:15.689515 21547 net.cpp:151] Top shape: 32 528 1 1 (16896)
I1102 14:14:15.689520 21547 net.cpp:159] Memory required for data: 131763972
I1102 14:14:15.689525 21547 layer_factory.hpp:77] Creating layer loss2/conv
I1102 14:14:15.689539 21547 net.cpp:94] Creating Layer loss2/conv
I1102 14:14:15.689545 21547 net.cpp:435] loss2/conv <- loss2/ave_pool
I1102 14:14:15.689553 21547 net.cpp:409] loss2/conv -> loss2/conv
I1102 14:14:15.692241 21547 net.cpp:144] Setting up loss2/conv
I1102 14:14:15.692270 21547 net.cpp:151] Top shape: 32 128 1 1 (4096)
I1102 14:14:15.692279 21547 net.cpp:159] Memory required for data: 131780356
I1102 14:14:15.692296 21547 layer_factory.hpp:77] Creating layer loss2/relu_conv
I1102 14:14:15.692309 21547 net.cpp:94] Creating Layer loss2/relu_conv
I1102 14:14:15.692320 21547 net.cpp:435] loss2/relu_conv <- loss2/conv
I1102 14:14:15.692332 21547 net.cpp:396] loss2/relu_conv -> loss2/conv (in-place)
I1102 14:14:15.692351 21547 net.cpp:144] Setting up loss2/relu_conv
I1102 14:14:15.692363 21547 net.cpp:151] Top shape: 32 128 1 1 (4096)
I1102 14:14:15.692381 21547 net.cpp:159] Memory required for data: 131796740
I1102 14:14:15.692386 21547 layer_factory.hpp:77] Creating layer loss2/fc
I1102 14:14:15.692397 21547 net.cpp:94] Creating Layer loss2/fc
I1102 14:14:15.692402 21547 net.cpp:435] loss2/fc <- loss2/conv
I1102 14:14:15.692411 21547 net.cpp:409] loss2/fc -> loss2/fc
I1102 14:14:15.693768 21547 net.cpp:144] Setting up loss2/fc
I1102 14:14:15.693781 21547 net.cpp:151] Top shape: 32 1024 (32768)
I1102 14:14:15.693786 21547 net.cpp:159] Memory required for data: 131927812
I1102 14:14:15.693794 21547 layer_factory.hpp:77] Creating layer loss2/relu_fc
I1102 14:14:15.693804 21547 net.cpp:94] Creating Layer loss2/relu_fc
I1102 14:14:15.693810 21547 net.cpp:435] loss2/relu_fc <- loss2/fc
I1102 14:14:15.693817 21547 net.cpp:396] loss2/relu_fc -> loss2/fc (in-place)
I1102 14:14:15.693826 21547 net.cpp:144] Setting up loss2/relu_fc
I1102 14:14:15.693833 21547 net.cpp:151] Top shape: 32 1024 (32768)
I1102 14:14:15.693838 21547 net.cpp:159] Memory required for data: 132058884
I1102 14:14:15.693843 21547 layer_factory.hpp:77] Creating layer loss2/drop_fc
I1102 14:14:15.693850 21547 net.cpp:94] Creating Layer loss2/drop_fc
I1102 14:14:15.693856 21547 net.cpp:435] loss2/drop_fc <- loss2/fc
I1102 14:14:15.693864 21547 net.cpp:396] loss2/drop_fc -> loss2/fc (in-place)
I1102 14:14:15.693895 21547 net.cpp:144] Setting up loss2/drop_fc
I1102 14:14:15.693905 21547 net.cpp:151] Top shape: 32 1024 (32768)
I1102 14:14:15.693909 21547 net.cpp:159] Memory required for data: 132189956
I1102 14:14:15.693914 21547 layer_factory.hpp:77] Creating layer loss2/classifier
I1102 14:14:15.693923 21547 net.cpp:94] Creating Layer loss2/classifier
I1102 14:14:15.693928 21547 net.cpp:435] loss2/classifier <- loss2/fc
I1102 14:14:15.693938 21547 net.cpp:409] loss2/classifier -> loss2/classifier
I1102 14:14:15.694161 21547 net.cpp:144] Setting up loss2/classifier
I1102 14:14:15.694170 21547 net.cpp:151] Top shape: 32 10 (320)
I1102 14:14:15.694178 21547 net.cpp:159] Memory required for data: 132191236
I1102 14:14:15.694186 21547 layer_factory.hpp:77] Creating layer loss2/loss
I1102 14:14:15.694196 21547 net.cpp:94] Creating Layer loss2/loss
I1102 14:14:15.694202 21547 net.cpp:435] loss2/loss <- loss2/classifier
I1102 14:14:15.694209 21547 net.cpp:435] loss2/loss <- label_train-data_1_split_1
I1102 14:14:15.694216 21547 net.cpp:409] loss2/loss -> loss2/loss
I1102 14:14:15.694226 21547 layer_factory.hpp:77] Creating layer loss2/loss
I1102 14:14:15.694339 21547 net.cpp:144] Setting up loss2/loss
I1102 14:14:15.694362 21547 net.cpp:151] Top shape: (1)
I1102 14:14:15.694367 21547 net.cpp:154]     with loss weight 0.3
I1102 14:14:15.694377 21547 net.cpp:159] Memory required for data: 132191240
I1102 14:14:15.694382 21547 layer_factory.hpp:77] Creating layer inception_4e/1x1
I1102 14:14:15.694393 21547 net.cpp:94] Creating Layer inception_4e/1x1
I1102 14:14:15.694399 21547 net.cpp:435] inception_4e/1x1 <- inception_4d/output_inception_4d/output_0_split_1
I1102 14:14:15.694411 21547 net.cpp:409] inception_4e/1x1 -> inception_4e/1x1
I1102 14:14:15.699849 21547 net.cpp:144] Setting up inception_4e/1x1
I1102 14:14:15.699867 21547 net.cpp:151] Top shape: 32 256 4 4 (131072)
I1102 14:14:15.699873 21547 net.cpp:159] Memory required for data: 132715528
I1102 14:14:15.699883 21547 layer_factory.hpp:77] Creating layer inception_4e/relu_1x1
I1102 14:14:15.699892 21547 net.cpp:94] Creating Layer inception_4e/relu_1x1
I1102 14:14:15.699898 21547 net.cpp:435] inception_4e/relu_1x1 <- inception_4e/1x1
I1102 14:14:15.699906 21547 net.cpp:396] inception_4e/relu_1x1 -> inception_4e/1x1 (in-place)
I1102 14:14:15.699918 21547 net.cpp:144] Setting up inception_4e/relu_1x1
I1102 14:14:15.699924 21547 net.cpp:151] Top shape: 32 256 4 4 (131072)
I1102 14:14:15.699929 21547 net.cpp:159] Memory required for data: 133239816
I1102 14:14:15.699934 21547 layer_factory.hpp:77] Creating layer inception_4e/3x3_reduce
I1102 14:14:15.699947 21547 net.cpp:94] Creating Layer inception_4e/3x3_reduce
I1102 14:14:15.699954 21547 net.cpp:435] inception_4e/3x3_reduce <- inception_4d/output_inception_4d/output_0_split_2
I1102 14:14:15.699964 21547 net.cpp:409] inception_4e/3x3_reduce -> inception_4e/3x3_reduce
I1102 14:14:15.703881 21547 net.cpp:144] Setting up inception_4e/3x3_reduce
I1102 14:14:15.703896 21547 net.cpp:151] Top shape: 32 160 4 4 (81920)
I1102 14:14:15.703900 21547 net.cpp:159] Memory required for data: 133567496
I1102 14:14:15.703908 21547 layer_factory.hpp:77] Creating layer inception_4e/relu_3x3_reduce
I1102 14:14:15.703915 21547 net.cpp:94] Creating Layer inception_4e/relu_3x3_reduce
I1102 14:14:15.703922 21547 net.cpp:435] inception_4e/relu_3x3_reduce <- inception_4e/3x3_reduce
I1102 14:14:15.703927 21547 net.cpp:396] inception_4e/relu_3x3_reduce -> inception_4e/3x3_reduce (in-place)
I1102 14:14:15.703938 21547 net.cpp:144] Setting up inception_4e/relu_3x3_reduce
I1102 14:14:15.703943 21547 net.cpp:151] Top shape: 32 160 4 4 (81920)
I1102 14:14:15.703948 21547 net.cpp:159] Memory required for data: 133895176
I1102 14:14:15.703953 21547 layer_factory.hpp:77] Creating layer inception_4e/3x3
I1102 14:14:15.703964 21547 net.cpp:94] Creating Layer inception_4e/3x3
I1102 14:14:15.703969 21547 net.cpp:435] inception_4e/3x3 <- inception_4e/3x3_reduce
I1102 14:14:15.703976 21547 net.cpp:409] inception_4e/3x3 -> inception_4e/3x3
I1102 14:14:15.714350 21547 net.cpp:144] Setting up inception_4e/3x3
I1102 14:14:15.714370 21547 net.cpp:151] Top shape: 32 320 4 4 (163840)
I1102 14:14:15.714375 21547 net.cpp:159] Memory required for data: 134550536
I1102 14:14:15.714385 21547 layer_factory.hpp:77] Creating layer inception_4e/relu_3x3
I1102 14:14:15.714395 21547 net.cpp:94] Creating Layer inception_4e/relu_3x3
I1102 14:14:15.714401 21547 net.cpp:435] inception_4e/relu_3x3 <- inception_4e/3x3
I1102 14:14:15.714409 21547 net.cpp:396] inception_4e/relu_3x3 -> inception_4e/3x3 (in-place)
I1102 14:14:15.714421 21547 net.cpp:144] Setting up inception_4e/relu_3x3
I1102 14:14:15.714428 21547 net.cpp:151] Top shape: 32 320 4 4 (163840)
I1102 14:14:15.714433 21547 net.cpp:159] Memory required for data: 135205896
I1102 14:14:15.714438 21547 layer_factory.hpp:77] Creating layer inception_4e/5x5_reduce
I1102 14:14:15.714453 21547 net.cpp:94] Creating Layer inception_4e/5x5_reduce
I1102 14:14:15.714459 21547 net.cpp:435] inception_4e/5x5_reduce <- inception_4d/output_inception_4d/output_0_split_3
I1102 14:14:15.714468 21547 net.cpp:409] inception_4e/5x5_reduce -> inception_4e/5x5_reduce
I1102 14:14:15.717295 21547 net.cpp:144] Setting up inception_4e/5x5_reduce
I1102 14:14:15.717327 21547 net.cpp:151] Top shape: 32 32 4 4 (16384)
I1102 14:14:15.717334 21547 net.cpp:159] Memory required for data: 135271432
I1102 14:14:15.717344 21547 layer_factory.hpp:77] Creating layer inception_4e/relu_5x5_reduce
I1102 14:14:15.717355 21547 net.cpp:94] Creating Layer inception_4e/relu_5x5_reduce
I1102 14:14:15.717361 21547 net.cpp:435] inception_4e/relu_5x5_reduce <- inception_4e/5x5_reduce
I1102 14:14:15.717370 21547 net.cpp:396] inception_4e/relu_5x5_reduce -> inception_4e/5x5_reduce (in-place)
I1102 14:14:15.717381 21547 net.cpp:144] Setting up inception_4e/relu_5x5_reduce
I1102 14:14:15.717387 21547 net.cpp:151] Top shape: 32 32 4 4 (16384)
I1102 14:14:15.717393 21547 net.cpp:159] Memory required for data: 135336968
I1102 14:14:15.717398 21547 layer_factory.hpp:77] Creating layer inception_4e/5x5
I1102 14:14:15.717423 21547 net.cpp:94] Creating Layer inception_4e/5x5
I1102 14:14:15.717430 21547 net.cpp:435] inception_4e/5x5 <- inception_4e/5x5_reduce
I1102 14:14:15.717439 21547 net.cpp:409] inception_4e/5x5 -> inception_4e/5x5
I1102 14:14:15.720943 21547 net.cpp:144] Setting up inception_4e/5x5
I1102 14:14:15.720960 21547 net.cpp:151] Top shape: 32 128 4 4 (65536)
I1102 14:14:15.720966 21547 net.cpp:159] Memory required for data: 135599112
I1102 14:14:15.720975 21547 layer_factory.hpp:77] Creating layer inception_4e/relu_5x5
I1102 14:14:15.720984 21547 net.cpp:94] Creating Layer inception_4e/relu_5x5
I1102 14:14:15.720991 21547 net.cpp:435] inception_4e/relu_5x5 <- inception_4e/5x5
I1102 14:14:15.720999 21547 net.cpp:396] inception_4e/relu_5x5 -> inception_4e/5x5 (in-place)
I1102 14:14:15.721009 21547 net.cpp:144] Setting up inception_4e/relu_5x5
I1102 14:14:15.721016 21547 net.cpp:151] Top shape: 32 128 4 4 (65536)
I1102 14:14:15.721021 21547 net.cpp:159] Memory required for data: 135861256
I1102 14:14:15.721026 21547 layer_factory.hpp:77] Creating layer inception_4e/pool
I1102 14:14:15.721035 21547 net.cpp:94] Creating Layer inception_4e/pool
I1102 14:14:15.721041 21547 net.cpp:435] inception_4e/pool <- inception_4d/output_inception_4d/output_0_split_4
I1102 14:14:15.721048 21547 net.cpp:409] inception_4e/pool -> inception_4e/pool
I1102 14:14:15.721134 21547 net.cpp:144] Setting up inception_4e/pool
I1102 14:14:15.721145 21547 net.cpp:151] Top shape: 32 528 4 4 (270336)
I1102 14:14:15.721151 21547 net.cpp:159] Memory required for data: 136942600
I1102 14:14:15.721156 21547 layer_factory.hpp:77] Creating layer inception_4e/pool_proj
I1102 14:14:15.721171 21547 net.cpp:94] Creating Layer inception_4e/pool_proj
I1102 14:14:15.721177 21547 net.cpp:435] inception_4e/pool_proj <- inception_4e/pool
I1102 14:14:15.721186 21547 net.cpp:409] inception_4e/pool_proj -> inception_4e/pool_proj
I1102 14:14:15.724761 21547 net.cpp:144] Setting up inception_4e/pool_proj
I1102 14:14:15.724791 21547 net.cpp:151] Top shape: 32 128 4 4 (65536)
I1102 14:14:15.724802 21547 net.cpp:159] Memory required for data: 137204744
I1102 14:14:15.724817 21547 layer_factory.hpp:77] Creating layer inception_4e/relu_pool_proj
I1102 14:14:15.724833 21547 net.cpp:94] Creating Layer inception_4e/relu_pool_proj
I1102 14:14:15.724843 21547 net.cpp:435] inception_4e/relu_pool_proj <- inception_4e/pool_proj
I1102 14:14:15.724870 21547 net.cpp:396] inception_4e/relu_pool_proj -> inception_4e/pool_proj (in-place)
I1102 14:14:15.724882 21547 net.cpp:144] Setting up inception_4e/relu_pool_proj
I1102 14:14:15.724889 21547 net.cpp:151] Top shape: 32 128 4 4 (65536)
I1102 14:14:15.724895 21547 net.cpp:159] Memory required for data: 137466888
I1102 14:14:15.724900 21547 layer_factory.hpp:77] Creating layer inception_4e/output
I1102 14:14:15.724907 21547 net.cpp:94] Creating Layer inception_4e/output
I1102 14:14:15.724912 21547 net.cpp:435] inception_4e/output <- inception_4e/1x1
I1102 14:14:15.724920 21547 net.cpp:435] inception_4e/output <- inception_4e/3x3
I1102 14:14:15.724925 21547 net.cpp:435] inception_4e/output <- inception_4e/5x5
I1102 14:14:15.724931 21547 net.cpp:435] inception_4e/output <- inception_4e/pool_proj
I1102 14:14:15.724941 21547 net.cpp:409] inception_4e/output -> inception_4e/output
I1102 14:14:15.724997 21547 net.cpp:144] Setting up inception_4e/output
I1102 14:14:15.725008 21547 net.cpp:151] Top shape: 32 832 4 4 (425984)
I1102 14:14:15.725013 21547 net.cpp:159] Memory required for data: 139170824
I1102 14:14:15.725018 21547 layer_factory.hpp:77] Creating layer pool4/3x3_s2
I1102 14:14:15.725028 21547 net.cpp:94] Creating Layer pool4/3x3_s2
I1102 14:14:15.725033 21547 net.cpp:435] pool4/3x3_s2 <- inception_4e/output
I1102 14:14:15.725040 21547 net.cpp:409] pool4/3x3_s2 -> pool4/3x3_s2
I1102 14:14:15.725103 21547 net.cpp:144] Setting up pool4/3x3_s2
I1102 14:14:15.725112 21547 net.cpp:151] Top shape: 32 832 2 2 (106496)
I1102 14:14:15.725117 21547 net.cpp:159] Memory required for data: 139596808
I1102 14:14:15.725122 21547 layer_factory.hpp:77] Creating layer pool4/3x3_s2_pool4/3x3_s2_0_split
I1102 14:14:15.725131 21547 net.cpp:94] Creating Layer pool4/3x3_s2_pool4/3x3_s2_0_split
I1102 14:14:15.725136 21547 net.cpp:435] pool4/3x3_s2_pool4/3x3_s2_0_split <- pool4/3x3_s2
I1102 14:14:15.725147 21547 net.cpp:409] pool4/3x3_s2_pool4/3x3_s2_0_split -> pool4/3x3_s2_pool4/3x3_s2_0_split_0
I1102 14:14:15.725155 21547 net.cpp:409] pool4/3x3_s2_pool4/3x3_s2_0_split -> pool4/3x3_s2_pool4/3x3_s2_0_split_1
I1102 14:14:15.725164 21547 net.cpp:409] pool4/3x3_s2_pool4/3x3_s2_0_split -> pool4/3x3_s2_pool4/3x3_s2_0_split_2
I1102 14:14:15.725172 21547 net.cpp:409] pool4/3x3_s2_pool4/3x3_s2_0_split -> pool4/3x3_s2_pool4/3x3_s2_0_split_3
I1102 14:14:15.725253 21547 net.cpp:144] Setting up pool4/3x3_s2_pool4/3x3_s2_0_split
I1102 14:14:15.725261 21547 net.cpp:151] Top shape: 32 832 2 2 (106496)
I1102 14:14:15.725267 21547 net.cpp:151] Top shape: 32 832 2 2 (106496)
I1102 14:14:15.725273 21547 net.cpp:151] Top shape: 32 832 2 2 (106496)
I1102 14:14:15.725280 21547 net.cpp:151] Top shape: 32 832 2 2 (106496)
I1102 14:14:15.725283 21547 net.cpp:159] Memory required for data: 141300744
I1102 14:14:15.725288 21547 layer_factory.hpp:77] Creating layer inception_5a/1x1
I1102 14:14:15.725301 21547 net.cpp:94] Creating Layer inception_5a/1x1
I1102 14:14:15.725307 21547 net.cpp:435] inception_5a/1x1 <- pool4/3x3_s2_pool4/3x3_s2_0_split_0
I1102 14:14:15.725317 21547 net.cpp:409] inception_5a/1x1 -> inception_5a/1x1
I1102 14:14:15.731880 21547 net.cpp:144] Setting up inception_5a/1x1
I1102 14:14:15.731899 21547 net.cpp:151] Top shape: 32 256 2 2 (32768)
I1102 14:14:15.731905 21547 net.cpp:159] Memory required for data: 141431816
I1102 14:14:15.731915 21547 layer_factory.hpp:77] Creating layer inception_5a/relu_1x1
I1102 14:14:15.731923 21547 net.cpp:94] Creating Layer inception_5a/relu_1x1
I1102 14:14:15.731930 21547 net.cpp:435] inception_5a/relu_1x1 <- inception_5a/1x1
I1102 14:14:15.731938 21547 net.cpp:396] inception_5a/relu_1x1 -> inception_5a/1x1 (in-place)
I1102 14:14:15.731950 21547 net.cpp:144] Setting up inception_5a/relu_1x1
I1102 14:14:15.731957 21547 net.cpp:151] Top shape: 32 256 2 2 (32768)
I1102 14:14:15.731962 21547 net.cpp:159] Memory required for data: 141562888
I1102 14:14:15.731967 21547 layer_factory.hpp:77] Creating layer inception_5a/3x3_reduce
I1102 14:14:15.731981 21547 net.cpp:94] Creating Layer inception_5a/3x3_reduce
I1102 14:14:15.731987 21547 net.cpp:435] inception_5a/3x3_reduce <- pool4/3x3_s2_pool4/3x3_s2_0_split_1
I1102 14:14:15.731997 21547 net.cpp:409] inception_5a/3x3_reduce -> inception_5a/3x3_reduce
I1102 14:14:15.736402 21547 net.cpp:144] Setting up inception_5a/3x3_reduce
I1102 14:14:15.736420 21547 net.cpp:151] Top shape: 32 160 2 2 (20480)
I1102 14:14:15.736426 21547 net.cpp:159] Memory required for data: 141644808
I1102 14:14:15.736436 21547 layer_factory.hpp:77] Creating layer inception_5a/relu_3x3_reduce
I1102 14:14:15.736445 21547 net.cpp:94] Creating Layer inception_5a/relu_3x3_reduce
I1102 14:14:15.736451 21547 net.cpp:435] inception_5a/relu_3x3_reduce <- inception_5a/3x3_reduce
I1102 14:14:15.736459 21547 net.cpp:396] inception_5a/relu_3x3_reduce -> inception_5a/3x3_reduce (in-place)
I1102 14:14:15.736470 21547 net.cpp:144] Setting up inception_5a/relu_3x3_reduce
I1102 14:14:15.736492 21547 net.cpp:151] Top shape: 32 160 2 2 (20480)
I1102 14:14:15.736498 21547 net.cpp:159] Memory required for data: 141726728
I1102 14:14:15.736503 21547 layer_factory.hpp:77] Creating layer inception_5a/3x3
I1102 14:14:15.736517 21547 net.cpp:94] Creating Layer inception_5a/3x3
I1102 14:14:15.736523 21547 net.cpp:435] inception_5a/3x3 <- inception_5a/3x3_reduce
I1102 14:14:15.736533 21547 net.cpp:409] inception_5a/3x3 -> inception_5a/3x3
I1102 14:14:15.747665 21547 net.cpp:144] Setting up inception_5a/3x3
I1102 14:14:15.747695 21547 net.cpp:151] Top shape: 32 320 2 2 (40960)
I1102 14:14:15.747705 21547 net.cpp:159] Memory required for data: 141890568
I1102 14:14:15.747722 21547 layer_factory.hpp:77] Creating layer inception_5a/relu_3x3
I1102 14:14:15.747740 21547 net.cpp:94] Creating Layer inception_5a/relu_3x3
I1102 14:14:15.747751 21547 net.cpp:435] inception_5a/relu_3x3 <- inception_5a/3x3
I1102 14:14:15.747763 21547 net.cpp:396] inception_5a/relu_3x3 -> inception_5a/3x3 (in-place)
I1102 14:14:15.747783 21547 net.cpp:144] Setting up inception_5a/relu_3x3
I1102 14:14:15.747795 21547 net.cpp:151] Top shape: 32 320 2 2 (40960)
I1102 14:14:15.747804 21547 net.cpp:159] Memory required for data: 142054408
I1102 14:14:15.747813 21547 layer_factory.hpp:77] Creating layer inception_5a/5x5_reduce
I1102 14:14:15.747835 21547 net.cpp:94] Creating Layer inception_5a/5x5_reduce
I1102 14:14:15.747846 21547 net.cpp:435] inception_5a/5x5_reduce <- pool4/3x3_s2_pool4/3x3_s2_0_split_2
I1102 14:14:15.747864 21547 net.cpp:409] inception_5a/5x5_reduce -> inception_5a/5x5_reduce
I1102 14:14:15.751045 21547 net.cpp:144] Setting up inception_5a/5x5_reduce
I1102 14:14:15.751062 21547 net.cpp:151] Top shape: 32 32 2 2 (4096)
I1102 14:14:15.751067 21547 net.cpp:159] Memory required for data: 142070792
I1102 14:14:15.751077 21547 layer_factory.hpp:77] Creating layer inception_5a/relu_5x5_reduce
I1102 14:14:15.751085 21547 net.cpp:94] Creating Layer inception_5a/relu_5x5_reduce
I1102 14:14:15.751092 21547 net.cpp:435] inception_5a/relu_5x5_reduce <- inception_5a/5x5_reduce
I1102 14:14:15.751101 21547 net.cpp:396] inception_5a/relu_5x5_reduce -> inception_5a/5x5_reduce (in-place)
I1102 14:14:15.751113 21547 net.cpp:144] Setting up inception_5a/relu_5x5_reduce
I1102 14:14:15.751121 21547 net.cpp:151] Top shape: 32 32 2 2 (4096)
I1102 14:14:15.751126 21547 net.cpp:159] Memory required for data: 142087176
I1102 14:14:15.751130 21547 layer_factory.hpp:77] Creating layer inception_5a/5x5
I1102 14:14:15.751142 21547 net.cpp:94] Creating Layer inception_5a/5x5
I1102 14:14:15.751148 21547 net.cpp:435] inception_5a/5x5 <- inception_5a/5x5_reduce
I1102 14:14:15.751157 21547 net.cpp:409] inception_5a/5x5 -> inception_5a/5x5
I1102 14:14:15.754515 21547 net.cpp:144] Setting up inception_5a/5x5
I1102 14:14:15.754532 21547 net.cpp:151] Top shape: 32 128 2 2 (16384)
I1102 14:14:15.754539 21547 net.cpp:159] Memory required for data: 142152712
I1102 14:14:15.754547 21547 layer_factory.hpp:77] Creating layer inception_5a/relu_5x5
I1102 14:14:15.754557 21547 net.cpp:94] Creating Layer inception_5a/relu_5x5
I1102 14:14:15.754565 21547 net.cpp:435] inception_5a/relu_5x5 <- inception_5a/5x5
I1102 14:14:15.754571 21547 net.cpp:396] inception_5a/relu_5x5 -> inception_5a/5x5 (in-place)
I1102 14:14:15.754581 21547 net.cpp:144] Setting up inception_5a/relu_5x5
I1102 14:14:15.754588 21547 net.cpp:151] Top shape: 32 128 2 2 (16384)
I1102 14:14:15.754593 21547 net.cpp:159] Memory required for data: 142218248
I1102 14:14:15.754598 21547 layer_factory.hpp:77] Creating layer inception_5a/pool
I1102 14:14:15.754609 21547 net.cpp:94] Creating Layer inception_5a/pool
I1102 14:14:15.754616 21547 net.cpp:435] inception_5a/pool <- pool4/3x3_s2_pool4/3x3_s2_0_split_3
I1102 14:14:15.754622 21547 net.cpp:409] inception_5a/pool -> inception_5a/pool
I1102 14:14:15.754685 21547 net.cpp:144] Setting up inception_5a/pool
I1102 14:14:15.754694 21547 net.cpp:151] Top shape: 32 832 2 2 (106496)
I1102 14:14:15.754698 21547 net.cpp:159] Memory required for data: 142644232
I1102 14:14:15.754716 21547 layer_factory.hpp:77] Creating layer inception_5a/pool_proj
I1102 14:14:15.754731 21547 net.cpp:94] Creating Layer inception_5a/pool_proj
I1102 14:14:15.754737 21547 net.cpp:435] inception_5a/pool_proj <- inception_5a/pool
I1102 14:14:15.754747 21547 net.cpp:409] inception_5a/pool_proj -> inception_5a/pool_proj
I1102 14:14:15.758500 21547 net.cpp:144] Setting up inception_5a/pool_proj
I1102 14:14:15.758517 21547 net.cpp:151] Top shape: 32 128 2 2 (16384)
I1102 14:14:15.758523 21547 net.cpp:159] Memory required for data: 142709768
I1102 14:14:15.758533 21547 layer_factory.hpp:77] Creating layer inception_5a/relu_pool_proj
I1102 14:14:15.758541 21547 net.cpp:94] Creating Layer inception_5a/relu_pool_proj
I1102 14:14:15.758548 21547 net.cpp:435] inception_5a/relu_pool_proj <- inception_5a/pool_proj
I1102 14:14:15.758554 21547 net.cpp:396] inception_5a/relu_pool_proj -> inception_5a/pool_proj (in-place)
I1102 14:14:15.758565 21547 net.cpp:144] Setting up inception_5a/relu_pool_proj
I1102 14:14:15.758572 21547 net.cpp:151] Top shape: 32 128 2 2 (16384)
I1102 14:14:15.758577 21547 net.cpp:159] Memory required for data: 142775304
I1102 14:14:15.758582 21547 layer_factory.hpp:77] Creating layer inception_5a/output
I1102 14:14:15.758589 21547 net.cpp:94] Creating Layer inception_5a/output
I1102 14:14:15.758595 21547 net.cpp:435] inception_5a/output <- inception_5a/1x1
I1102 14:14:15.758601 21547 net.cpp:435] inception_5a/output <- inception_5a/3x3
I1102 14:14:15.758607 21547 net.cpp:435] inception_5a/output <- inception_5a/5x5
I1102 14:14:15.758613 21547 net.cpp:435] inception_5a/output <- inception_5a/pool_proj
I1102 14:14:15.758620 21547 net.cpp:409] inception_5a/output -> inception_5a/output
I1102 14:14:15.758664 21547 net.cpp:144] Setting up inception_5a/output
I1102 14:14:15.758672 21547 net.cpp:151] Top shape: 32 832 2 2 (106496)
I1102 14:14:15.758677 21547 net.cpp:159] Memory required for data: 143201288
I1102 14:14:15.758682 21547 layer_factory.hpp:77] Creating layer inception_5a/output_inception_5a/output_0_split
I1102 14:14:15.758692 21547 net.cpp:94] Creating Layer inception_5a/output_inception_5a/output_0_split
I1102 14:14:15.758697 21547 net.cpp:435] inception_5a/output_inception_5a/output_0_split <- inception_5a/output
I1102 14:14:15.758704 21547 net.cpp:409] inception_5a/output_inception_5a/output_0_split -> inception_5a/output_inception_5a/output_0_split_0
I1102 14:14:15.758713 21547 net.cpp:409] inception_5a/output_inception_5a/output_0_split -> inception_5a/output_inception_5a/output_0_split_1
I1102 14:14:15.758721 21547 net.cpp:409] inception_5a/output_inception_5a/output_0_split -> inception_5a/output_inception_5a/output_0_split_2
I1102 14:14:15.758729 21547 net.cpp:409] inception_5a/output_inception_5a/output_0_split -> inception_5a/output_inception_5a/output_0_split_3
I1102 14:14:15.758812 21547 net.cpp:144] Setting up inception_5a/output_inception_5a/output_0_split
I1102 14:14:15.758819 21547 net.cpp:151] Top shape: 32 832 2 2 (106496)
I1102 14:14:15.758826 21547 net.cpp:151] Top shape: 32 832 2 2 (106496)
I1102 14:14:15.758831 21547 net.cpp:151] Top shape: 32 832 2 2 (106496)
I1102 14:14:15.758837 21547 net.cpp:151] Top shape: 32 832 2 2 (106496)
I1102 14:14:15.758841 21547 net.cpp:159] Memory required for data: 144905224
I1102 14:14:15.758846 21547 layer_factory.hpp:77] Creating layer inception_5b/1x1
I1102 14:14:15.758858 21547 net.cpp:94] Creating Layer inception_5b/1x1
I1102 14:14:15.758864 21547 net.cpp:435] inception_5b/1x1 <- inception_5a/output_inception_5a/output_0_split_0
I1102 14:14:15.758874 21547 net.cpp:409] inception_5b/1x1 -> inception_5b/1x1
I1102 14:14:15.766837 21547 net.cpp:144] Setting up inception_5b/1x1
I1102 14:14:15.766855 21547 net.cpp:151] Top shape: 32 384 2 2 (49152)
I1102 14:14:15.766860 21547 net.cpp:159] Memory required for data: 145101832
I1102 14:14:15.766870 21547 layer_factory.hpp:77] Creating layer inception_5b/relu_1x1
I1102 14:14:15.766878 21547 net.cpp:94] Creating Layer inception_5b/relu_1x1
I1102 14:14:15.766897 21547 net.cpp:435] inception_5b/relu_1x1 <- inception_5b/1x1
I1102 14:14:15.766906 21547 net.cpp:396] inception_5b/relu_1x1 -> inception_5b/1x1 (in-place)
I1102 14:14:15.766917 21547 net.cpp:144] Setting up inception_5b/relu_1x1
I1102 14:14:15.766924 21547 net.cpp:151] Top shape: 32 384 2 2 (49152)
I1102 14:14:15.766929 21547 net.cpp:159] Memory required for data: 145298440
I1102 14:14:15.766934 21547 layer_factory.hpp:77] Creating layer inception_5b/3x3_reduce
I1102 14:14:15.766948 21547 net.cpp:94] Creating Layer inception_5b/3x3_reduce
I1102 14:14:15.766954 21547 net.cpp:435] inception_5b/3x3_reduce <- inception_5a/output_inception_5a/output_0_split_1
I1102 14:14:15.766963 21547 net.cpp:409] inception_5b/3x3_reduce -> inception_5b/3x3_reduce
I1102 14:14:15.771553 21547 net.cpp:144] Setting up inception_5b/3x3_reduce
I1102 14:14:15.771571 21547 net.cpp:151] Top shape: 32 192 2 2 (24576)
I1102 14:14:15.771576 21547 net.cpp:159] Memory required for data: 145396744
I1102 14:14:15.771586 21547 layer_factory.hpp:77] Creating layer inception_5b/relu_3x3_reduce
I1102 14:14:15.771595 21547 net.cpp:94] Creating Layer inception_5b/relu_3x3_reduce
I1102 14:14:15.771601 21547 net.cpp:435] inception_5b/relu_3x3_reduce <- inception_5b/3x3_reduce
I1102 14:14:15.771608 21547 net.cpp:396] inception_5b/relu_3x3_reduce -> inception_5b/3x3_reduce (in-place)
I1102 14:14:15.771620 21547 net.cpp:144] Setting up inception_5b/relu_3x3_reduce
I1102 14:14:15.771626 21547 net.cpp:151] Top shape: 32 192 2 2 (24576)
I1102 14:14:15.771631 21547 net.cpp:159] Memory required for data: 145495048
I1102 14:14:15.771636 21547 layer_factory.hpp:77] Creating layer inception_5b/3x3
I1102 14:14:15.771649 21547 net.cpp:94] Creating Layer inception_5b/3x3
I1102 14:14:15.771654 21547 net.cpp:435] inception_5b/3x3 <- inception_5b/3x3_reduce
I1102 14:14:15.771664 21547 net.cpp:409] inception_5b/3x3 -> inception_5b/3x3
I1102 14:14:15.787437 21547 net.cpp:144] Setting up inception_5b/3x3
I1102 14:14:15.787458 21547 net.cpp:151] Top shape: 32 384 2 2 (49152)
I1102 14:14:15.787464 21547 net.cpp:159] Memory required for data: 145691656
I1102 14:14:15.787475 21547 layer_factory.hpp:77] Creating layer inception_5b/relu_3x3
I1102 14:14:15.787484 21547 net.cpp:94] Creating Layer inception_5b/relu_3x3
I1102 14:14:15.787492 21547 net.cpp:435] inception_5b/relu_3x3 <- inception_5b/3x3
I1102 14:14:15.787502 21547 net.cpp:396] inception_5b/relu_3x3 -> inception_5b/3x3 (in-place)
I1102 14:14:15.787514 21547 net.cpp:144] Setting up inception_5b/relu_3x3
I1102 14:14:15.787523 21547 net.cpp:151] Top shape: 32 384 2 2 (49152)
I1102 14:14:15.787528 21547 net.cpp:159] Memory required for data: 145888264
I1102 14:14:15.787533 21547 layer_factory.hpp:77] Creating layer inception_5b/5x5_reduce
I1102 14:14:15.787545 21547 net.cpp:94] Creating Layer inception_5b/5x5_reduce
I1102 14:14:15.787552 21547 net.cpp:435] inception_5b/5x5_reduce <- inception_5a/output_inception_5a/output_0_split_2
I1102 14:14:15.787560 21547 net.cpp:409] inception_5b/5x5_reduce -> inception_5b/5x5_reduce
I1102 14:14:15.790591 21547 net.cpp:144] Setting up inception_5b/5x5_reduce
I1102 14:14:15.790608 21547 net.cpp:151] Top shape: 32 48 2 2 (6144)
I1102 14:14:15.790614 21547 net.cpp:159] Memory required for data: 145912840
I1102 14:14:15.790623 21547 layer_factory.hpp:77] Creating layer inception_5b/relu_5x5_reduce
I1102 14:14:15.790632 21547 net.cpp:94] Creating Layer inception_5b/relu_5x5_reduce
I1102 14:14:15.790638 21547 net.cpp:435] inception_5b/relu_5x5_reduce <- inception_5b/5x5_reduce
I1102 14:14:15.790648 21547 net.cpp:396] inception_5b/relu_5x5_reduce -> inception_5b/5x5_reduce (in-place)
I1102 14:14:15.790660 21547 net.cpp:144] Setting up inception_5b/relu_5x5_reduce
I1102 14:14:15.790668 21547 net.cpp:151] Top shape: 32 48 2 2 (6144)
I1102 14:14:15.790673 21547 net.cpp:159] Memory required for data: 145937416
I1102 14:14:15.790678 21547 layer_factory.hpp:77] Creating layer inception_5b/5x5
I1102 14:14:15.790691 21547 net.cpp:94] Creating Layer inception_5b/5x5
I1102 14:14:15.790698 21547 net.cpp:435] inception_5b/5x5 <- inception_5b/5x5_reduce
I1102 14:14:15.790722 21547 net.cpp:409] inception_5b/5x5 -> inception_5b/5x5
I1102 14:14:15.796095 21547 net.cpp:144] Setting up inception_5b/5x5
I1102 14:14:15.796125 21547 net.cpp:151] Top shape: 32 128 2 2 (16384)
I1102 14:14:15.796136 21547 net.cpp:159] Memory required for data: 146002952
I1102 14:14:15.796152 21547 layer_factory.hpp:77] Creating layer inception_5b/relu_5x5
I1102 14:14:15.796167 21547 net.cpp:94] Creating Layer inception_5b/relu_5x5
I1102 14:14:15.796178 21547 net.cpp:435] inception_5b/relu_5x5 <- inception_5b/5x5
I1102 14:14:15.796195 21547 net.cpp:396] inception_5b/relu_5x5 -> inception_5b/5x5 (in-place)
I1102 14:14:15.796216 21547 net.cpp:144] Setting up inception_5b/relu_5x5
I1102 14:14:15.796228 21547 net.cpp:151] Top shape: 32 128 2 2 (16384)
I1102 14:14:15.796237 21547 net.cpp:159] Memory required for data: 146068488
I1102 14:14:15.796247 21547 layer_factory.hpp:77] Creating layer inception_5b/pool
I1102 14:14:15.796260 21547 net.cpp:94] Creating Layer inception_5b/pool
I1102 14:14:15.796270 21547 net.cpp:435] inception_5b/pool <- inception_5a/output_inception_5a/output_0_split_3
I1102 14:14:15.796283 21547 net.cpp:409] inception_5b/pool -> inception_5b/pool
I1102 14:14:15.796399 21547 net.cpp:144] Setting up inception_5b/pool
I1102 14:14:15.796414 21547 net.cpp:151] Top shape: 32 832 2 2 (106496)
I1102 14:14:15.796434 21547 net.cpp:159] Memory required for data: 146494472
I1102 14:14:15.796440 21547 layer_factory.hpp:77] Creating layer inception_5b/pool_proj
I1102 14:14:15.796452 21547 net.cpp:94] Creating Layer inception_5b/pool_proj
I1102 14:14:15.796459 21547 net.cpp:435] inception_5b/pool_proj <- inception_5b/pool
I1102 14:14:15.796469 21547 net.cpp:409] inception_5b/pool_proj -> inception_5b/pool_proj
I1102 14:14:15.800552 21547 net.cpp:144] Setting up inception_5b/pool_proj
I1102 14:14:15.800571 21547 net.cpp:151] Top shape: 32 128 2 2 (16384)
I1102 14:14:15.800578 21547 net.cpp:159] Memory required for data: 146560008
I1102 14:14:15.800590 21547 layer_factory.hpp:77] Creating layer inception_5b/relu_pool_proj
I1102 14:14:15.800598 21547 net.cpp:94] Creating Layer inception_5b/relu_pool_proj
I1102 14:14:15.800606 21547 net.cpp:435] inception_5b/relu_pool_proj <- inception_5b/pool_proj
I1102 14:14:15.800616 21547 net.cpp:396] inception_5b/relu_pool_proj -> inception_5b/pool_proj (in-place)
I1102 14:14:15.800629 21547 net.cpp:144] Setting up inception_5b/relu_pool_proj
I1102 14:14:15.800637 21547 net.cpp:151] Top shape: 32 128 2 2 (16384)
I1102 14:14:15.800643 21547 net.cpp:159] Memory required for data: 146625544
I1102 14:14:15.800649 21547 layer_factory.hpp:77] Creating layer inception_5b/output
I1102 14:14:15.800657 21547 net.cpp:94] Creating Layer inception_5b/output
I1102 14:14:15.800663 21547 net.cpp:435] inception_5b/output <- inception_5b/1x1
I1102 14:14:15.800671 21547 net.cpp:435] inception_5b/output <- inception_5b/3x3
I1102 14:14:15.800678 21547 net.cpp:435] inception_5b/output <- inception_5b/5x5
I1102 14:14:15.800684 21547 net.cpp:435] inception_5b/output <- inception_5b/pool_proj
I1102 14:14:15.800695 21547 net.cpp:409] inception_5b/output -> inception_5b/output
I1102 14:14:15.800745 21547 net.cpp:144] Setting up inception_5b/output
I1102 14:14:15.800755 21547 net.cpp:151] Top shape: 32 1024 2 2 (131072)
I1102 14:14:15.800760 21547 net.cpp:159] Memory required for data: 147149832
I1102 14:14:15.800766 21547 layer_factory.hpp:77] Creating layer pool5/7x7_s1
I1102 14:14:15.800776 21547 net.cpp:94] Creating Layer pool5/7x7_s1
I1102 14:14:15.800783 21547 net.cpp:435] pool5/7x7_s1 <- inception_5b/output
I1102 14:14:15.800791 21547 net.cpp:409] pool5/7x7_s1 -> pool5/7x7_s1
F1102 14:14:15.800845 21547 blob.cpp:32] Check failed: shape[i] >= 0 (-4 vs. 0)
…
